Code/checkpoints/cifar10-epoch=02-val_loss=1.48.ckpt (torch, 984128 bytes, 36 tensors)

conv.0.0.weight f4 [8, 3, 3, 3]
0	0x3dc40796	0.095717594
1	0x3e45ccc7	0.19316398
2	0x3dac6c8b	0.084191404
3	0xbb0be98e	-0.0021348926
4	0x3d46fd0f	0.04858118
5	0x3e1426a3	0.14467864
6	0x3d78da7b	0.060755234
7	0x3e1a143b	0.1504678
8	0x3e459d9f	0.19298409
9	0x3e1c4f8d	0.15264721
10	0x3d6ddad5	0.058070023
11	0x3e1febec	0.15617341
12	0x3e0c22c9	0.13685144
13	0xbe2a7e35	-0.16649707
14	0x3d7058c3	0.0586784
15	0xbdb29029	-0.087189026
16	0x3e3d0c2a	0.18461671
17	0xbd976c2c	-0.07393679
18	0xbc16759a	-0.009183312
19	0x3e1117f5	0.14169295
20	0xbe2ca80d	-0.16860981
21	0xbd827c9d	-0.06371424
22	0xbe473a87	-0.1945592
23	0xbd7adbeb	-0.061244886
24	0x3d6fa9ac	0.05851142
25	0x3cf4f2af	0.029900877
26	0xbe1fbe79	-0.15600003
27	0xbdd9a2ff	-0.10626792
28	0x3d5df070	0.054184377
29	0x3dca0077	0.0986337
30	0x3e12760a	0.14302841
31	0x3e09f02b	0.13470523
32	0x3e1e07de	0.15432689
33	0xbe384a5c	-0.17997116
34	0xbe00eec5	-0.12591083
35	0x3e0f0618	0.13967168
36	0x3e34c088	0.1765157
37	0x3e12f85e	0.14352557
38	0xbcc335d0	-0.02382937
39	0xbd23d946	-0.04000213
40	0x3d13b184	0.036057964
41	0x3d689479	0.05678222
42	0x3e39d86f	0.18148969
43	0x3e2cc30b	0.16871278
44	0xbe0bcb56	-0.13651785
45	0x3e30f844	0.17282206
46	0x3e3790ac	0.17926282
47	0xbcff4c72	-0.031164382
48	0x3bbfd6bf	0.005854457
49	0x3dc28e7a	0.094998315
50	0x3e5cdd2c	0.21568745
51	0x3e4678e7	0.19382058
52	0x3e25ce91	0.1619208
53	0x3dd31ef2	0.10308637
54	0x3ce63c54	0.028104939
55	0xbd3c5ccd	-0.04598694
56	0xbd7201e8	-0.05908385
57	0xbc9841fa	-0.018586148
58	0xbdce0c5e	-0.100609526
59	0xbdef1b66	-0.11675148
60	0xbd9cd323	-0.07657459
61	0x3cee95a8	0.029124096
62	0xbd72c370	-0.059268415
63	0xbe24fd9d	-0.16112371
64	0xbdc842e7	-0.097783856
65	0xbdc23a97	-0.094838314
66	0xbd859404	-0.06522372
67	0xbbdb3a05	-0.006690266
68	0xbe0994bb	-0.13435642
69	0xbe31342d	-0.1730506
70	0xbcefd6cc	-0.029277228
71	0x3d07df83	0.03317214
72	0xbe594b21	-0.21220066
73	0xbddca983	-0.10774519
74	0x3ce12bc7	0.027486695
75	0xbdf48782	-0.119399086
76	0xbdf4c693	-0.119519375
77	0x3d2eddcc	0.04269199
78	0xbe5b42e3	-0.21412234
79	0x3d1c2a0d	0.03812604
80	0x3e0b3b8b	0.13596933
81	0xbdad71d2	-0.08468975
82	0x3d6b962b	0.05751626
83	0x3cbece34	0.023291685
84	0xbe0e8d53	-0.13921098
85	0x3e1d8dbb	0.15386097
86	0x3e4b9be6	0.1988369
87	0xbcbc9541	-0.023020389
88	0x3d995b25	0.074880876
89	0xbe267966	-0.16257247
90	0xbdda02f0	-0.106450915
91	0x3dea2621	0.11433054
92	0x3d6af272	0.05736012
93	0xbddf0391	-0.10889352
94	0xbcbb7ea2	-0.022887532
95	0x3d025b4f	0.03182536
96	0x3e47872e	0.1948516
97	0xbda619b5	-0.08110372
98	0xbd36d845	-0.044639844
99	0xbcc26678	-0.023730502
100	0xbd3df027	-0.046371605
101	0x3d2c74cb	0.04210357
102	0x3da36e53	0.07980027
103	0xbddf81fc	-0.109134644
104	0xbd767648	-0.060171396
105	0x3e7c1570	0.24617553
106	0xbda8f8eb	-0.08250602
107	0xbd73e64b	-0.059545796
108	0x3e3e1c78	0.18565547
109	0xbe034656	-0.128198
110	0x3e472e08	0.19451153
111	0x3d52cd33	0.051465224
112	0x3dbbe92e	0.09175335
113	0xbdf17d1d	-0.117914416
114	0x3e2998c4	0.16562182
115	0x3e09c654	0.13454562
116	0x3d82b888	0.06382853
117	0x3e1691b0	0.14704013
118	0x3e088553	0.13332109
119	0x3e3b2d84	0.18279082
120	0x3e1d335b	0.15351622
121	0x3e3888b4	0.18020898
122	0x3e0cd0a8	0.13751471
123	0x3e36de43	0.17858224
124	0x3e40f810	0.18844628
125	0xbd7a0bf9	-0.061046574
126	0x3e2f813f	0.17139147
127	0xbe292b91	-0.16520526
128	0xbe2647c7	-0.16238318
129	0x3d659ed8	0.05605969
130	0xbdca2eb2	-0.09872188
131	0xbe340f40	-0.17583942
132	0xbb7f9945	-0.0039001268
133	0xbda53090	-0.08065903
134	0xbe16dbc3	-0.1473227
135	0x3db1aece	0.086759195
136	0x3e61fc40	0.22068882
137	0xbda4e019	-0.08050556
138	0xbd5a015d	-0.053223956
139	0x3e542cdd	0.20720239
140	0xbe0d1bf9	-0.13780202
141	0xbd1f4cd6	-0.038891636
142	0xbb427764	-0.0029673213
143	0x3e1cf6e3	0.15328555
144	0x3e3603c4	0.17774874
145	0x3e0d88dd	0.1382174
146	0xbdd80178	-0.10547155
147	0x3e26c869	0.16287388
148	0xbda6e87d	-0.08149812
149	0x3d111481	0.035419945
150	0xbd81c5db	-0.06336566
151	0x3e0d726d	0.13813181
152	0xbddb7397	-0.107154064
153	0x3e03996f	0.12851499
154	0xbe221e16	-0.1583179
155	0xbe4e4c14	-0.20146209
156	0xbdc451f9	-0.095859475
157	0x3dee7905	0.116441764
158	0xbcb84fe3	-0.02249903
159	0xbe390ae6	-0.18070564
160	0x3d1e0994	0.038583353
161	0xbe07a3a6	-0.1324602
162	0xbddb60b6	-0.107118055
163	0x3e259380	0.16169548
164	0xbd5a6f5b	-0.053328853
165	0xbe18f092	-0.1493552
166	0xbd80d1eb	-0.06290039
167	0xbd098d1b	-0.033581834
168	0x3d64fa41	0.055902723
169	0xbe0be384	-0.13661009
170	0xbca38515	-0.01996092
171	0x3e1fb677	0.15596949
172	0x3b916d4e	0.004438079
173	0xbe1101ce	-0.14160845
174	0xbd59d479	-0.053181145
175	0xbcacfe66	-0.0211174
176	0xbd91cc11	-0.07119001
177	0x3e184128	0.14868605
178	0x3e38477c	0.17996019
179	0x3e49f317	0.19721638
180	0x3d1d917b	0.03846882
181	0x3e35388a	0.17697349
182	0x3d734889	0.059395347
183	0x3e4f1c8e	0.20225736
184	0xbe028bdf	-0.12748669
185	0x3e70b743	0.23507409
186	0x3da2140c	0.0791398
187	0x3e566af2	0.20939234
188	0xbc0b376e	-0.008497102
189	0xbd5443ae	-0.051822357
190	0x3dae5e90	0.0851413
191	0xbd8e3e19	-0.06945438
192	0xbcd3c774	-0.025851943
193	0xbd93c3c8	-0.07215077
194	0x3d940727	0.07227927
195	0xbde698e9	-0.11259634
196	0xbdfd62d1	-0.12372363
197	0x3d8909c9	0.066913195
198	0x3dc0d8f4	0.094163805
199	0xbdad7731	-0.084699996
200	0xbbb3f73f	-0.0054921205
201	0xbdbdbbf7	-0.09264367
202	0x3e4d71b7	0.2006291
203	0x3e55b953	0.20871477
204	0x3d95921b	0.07303258
205	0x3e58a3d6	0.21156248
206	0xbc36a5ee	-0.011147959
207	0xbdd6ffb9	-0.10497994
208	0xb8c95cf8	-9.601744e-05
209	0xbe248078	-0.16064632
210	0x3d276014	0.04086311
211	0x3e51aba6	0.20475635
212	0x3d2aeabe	0.041727774
213	0xbcb2d528	-0.021830156
214	0x3e767ac3	0.24070267
215	0x3e4492dd	0.19196649

conv.0.0.bias f4 [8]
0	0x3de1eb45	0.11031202
1	0xbda6fb33	-0.08153381
2	0xbe46725d	-0.19379564
3	0xbab734ac	-0.001397749
4	0xbcb4dd4a	-0.022078175
5	0xbb1c606b	-0.002386118
6	0xbdcd3ea9	-0.10021717
7	0xbde695ce	-0.11259042

conv.1.0.weight f4 [16, 8, 3, 3]
0	0xbe2522d0	-0.16126561
1	0xbe146bf7	-0.1449431
2	0x3da3436f	0.07971846
3	0xbd1c130a	-0.038104095
4	0xbdc117e1	-0.09428383
5	0x3d5396c8	0.051657468
6	0xbd0daf83	-0.03459121
7	0x3d9784da	0.07398386
8	0xbcef74d9	-0.029230522
9	0x3d0b14df	0.03395545
10	0x3e12c491	0.14332797
11	0xbd953227	-0.072849564
12	0xbcc0130c	-0.023446582
13	0x3e2c30da	0.1681551
14	0x3d01c2f5	0.031680066
15	0x3d8963f3	0.06708517
16	0x3dc24637	0.09486049
17	0x3e05438d	0.1301405
18	0xbd51c45b	-0.05121265
19	0x3d9a79c6	0.07542758
20	0x3dcfb617	0.10142153
21	0x3d98dd8d	0.074641325
22	0xbd66c71c	-0.05634223
23	0xbd017cbd	-0.0316131
24	0x3d611d5d	0.054959644
25	0x3dc522ec	0.096258014
26	0xbda88abd	-0.08229587
27	0xbcd66efd	-0.02617597
28	0xbd8f061c	-0.06983587
29	0x3d8cfa35	0.06883661
30	0xbe0027df	-0.1251521
31	0xbd196489	-0.037449393
32	0xbe37bd63	-0.17943339
33	0xba9a0a93	-0.0011752419
34	0xbda14852	-0.07875122
35	0xbe3c03a0	-0.18360758
36	0xbd60138f	-0.054706153
37	0x3d915f85	0.07098297
38	0x3d918f41	0.07107402
39	0xbddd43de	-0.1080396
40	0xbd776967	-0.060403254
41	0x3de41017	0.111358814
42	0x3d94ee0e	0.07271968
43	0x3dc236ae	0.094830856
44	0x3e05be0d	0.1306078
45	0xbea00a1b	-0.3125771
46	0xbe6c8777	-0.2309855
47	0x3d385718	0.045004934
48	0xbe484367	-0.19556962
49	0xbe04201e	-0.12902877
50	0xbe0df870	-0.13864303
51	0xbe328d68	-0.17436755
52	0xbd786bd8	-0.060649723
53	0x3c49d78d	0.012319458
54	0x3db9f087	0.0907908
55	0x3e5276ac	0.20553082
56	0x3ddfb76f	0.10923659
57	0x3e25331f	0.16132782
58	0x3d9fa2c2	0.077947155
59	0x3d208ec2	0.039198644
60	0xbd515a10	-0.05111128
61	0x3d5aded5	0.053435165
62	0x3c9c19d9	0.019055294
63	0x3d218ea4	0.039442673
64	0xbbdd0ef4	-0.0067461673
65	0x3e2fc069	0.17163242
66	0x3e2a2d2b	0.16618793
67	0x3db545f4	0.08851233
68	0xbcb4bf03	-0.022063738
69	0x3d76133c	0.060076937
70	0xbdb652ff	-0.08902549
71	0xbd006d40	-0.03135419
72	0x3df856dd	0.12125943
73	0xbc18fa3e	-0.009337006
74	0x3cb5e79c	0.022205167
75	0x3d0f84aa	0.035038628
76	0xbd987ff3	-0.074462794
77	0x3de2a682	0.11066915
78	0x3dd284c7	0.102792315
79	0xbd4aa6cb	-0.049475472
80	0x3d5d5e58	0.05404505
81	0xbd1b80fd	-0.03796481
82	0xbcb4b6b2	-0.022059772
83	0x3d3554af	0.044270214
84	0x3de29e4f	0.11065351
85	0x3d94dcaa	0.07268651
86	0xbde08ba9	-0.10964138
87	0xbd5a4345	-0.05328681
88	0xbd4eea1a	-0.050516225
89	0xbda5c876	-0.080948755
90	0x3cd04254	0.025422253
91	0x3d93938c	0.07205877
92	0x3cf7dcc6	0.03025664
93	0x3dcc4cf0	0.09975612
94	0xbc16a040	-0.00919348
95	0x3d137866	0.036003493
96	0xbad1bab4	-0.0016001076
97	0x3df71d68	0.12066156
98	0xbd4ac147	-0.04950073
99	0x3c9931b5	0.01870046
100	0xbd9f9690	-0.077923894
101	0x3e16cecd	0.14727326
102	0x3e17ad43	0.14812188
103	0x3c4aac32	0.012370156
104	0x3db09bd1	0.086234696
105	0xbc119962	-0.008886667
106	0xbce4fad6	-0.02795164
107	0x3cc9a39e	0.024614152
108	0xbdb2e7d7	-0.08735626
109	0x3dfc7e06	0.123287246
110	0x3cb7a89e	0.02241927
111	0xbc887c40	-0.01666081
112	0x3e01af09	0.12664427
113	0x3d9d182d	0.07670627
114	0x3b323088	0.0027189571
115	0xbda2098f	-0.079119794
116	0xbd93ee52	-0.0722319
117	0xbcf5371a	-0.029933501
118	0x3bd005fc	0.0063483696
119	0x3dba6d2e	0.091028556
120	0xbcb4419b	-0.02200394
121	0x3dee8a95	0.11647526
122	0x3e01c26a	0.1267182
123	0x3dd48cd8	0.10378426
124	0x3e042815	0.12905915
125	0x3d1fc584	0.039006725
126	0xbd9d6057	-0.07684391
127	0xbe0132b7	-0.12617002
128	0xbdb86af2	-0.09004773
129	0xbcd50a5e	-0.02600592
130	0xbc9cb193	-0.019127643
131	0xbdf60188	-0.12012011
132	0xbcb47e97	-0.022033019
133	0x3d958918	0.07301539
134	0xbd7263a8	-0.05917707
135	0xbd081cc9	-0.033230577
136	0x3cc7cbe3	0.024389213
137	0xbda17f20	-0.07885575
138	0x3de0f84a	0.109848574
139	0x3bc34ff7	0.0059604603
140	0xbcf789b7	-0.030217035
141	0x3df1bbcd	0.11803398
142	0x3cb10fe6	0.021614026
143	0xbd874dca	-0.06606634
144	0xbd3d890c	-0.046273276
145	0x3de7ccf7	0.11318391
146	0x3d082db3	0.033246707
147	0x3d962523	0.07331302
148	0xbc99db79	-0.01878141
149	0xbdb6d18c	-0.08926687
150	0xbdf1c34d	-0.11804829
151	0x3d7ff76b	0.062491816
152	0xbdea3b04	-0.114370376
153	0x3d0fac7a	0.035076596
154	0x3c0c2020	0.008552581
155	0x3d8ede24	0.06975964
156	0x3d14b6a9	0.03630701
157	0x3d26b88d	0.040703345
158	0xbda836b1	-0.082135566
159	0xb9d8a274	-0.00041319767
160	0x3d87d89d	0.066331126
161	0x3d83a499	0.06427879
162	0xbc990fd2	-0.018684302
163	0x3dcbe675	0.099560656
164	0x3d6d3768	0.057914168
165	0x3cc1cdca	0.023657698
166	0x3d7874ca	0.060658254
167	0xbd348878	-0.04407546
168	0xbd1e5928	-0.038659245
169	0x3ddba42d	0.107246734
170	0xbdcf34f0	-0.10117519
171	0x3d7d72db	0.061877113
172	0x3da701bc	0.08154628
173	0x3e6cf69e	0.23140952
174	0x3d7ba9cf	0.06144124
175	0xbe07ec56	-0.13273749
176	0x3c0a448b	0.0084391935
177	0xbcc5674a	-0.024097104
178	0xbb4b78a4	-0.003104725
179	0xbd9022e8	-0.07037908
180	0x3d1f9f51	0.038970295
181	0x3e0566de	0.13027522
182	0x3dc603ea	0.09668715
183	0xbb812b9b	-0.0039419658
184	0xbd35da64	-0.044397727
185	0x3d8bdbbe	0.06829022
186	0x3d64c9c4	0.05585648
187	0x3dd432b1	0.10361231
188	0x3c8508be	0.01623952
189	0xbdf4431f	-0.11926865
190	0xbaf7d364	-0.0018907604
191	0x3d86b6b5	0.06577817
192	0xbe212345	-0.1573611
193	0xbd35ad0b	-0.04435448
194	0x3e31f02a	0.17376772
195	0xbd8a2b27	-0.06746512
196	0x3caa225a	0.020768333
197	0x3b07683e	0.0020661498
198	0xbcb05845	-0.021526465
199	0x3dfb46c0	0.12269354
200	0xbc2ff981	-0.010740639
201	0x3e01fa42	0.12693122
202	0x3a6b14d7	0.0008967644
203	0xbd9196d2	-0.07108845
204	0xbd7c3feb	-0.061584394
205	0xbb983298	-0.004644703
206	0xbdc7b316	-0.09750955
207	0x3db119ec	0.08647522
208	0x3e2a3451	0.1662152
209	0x3dd015a3	0.10160377
210	0x3d4f182f	0.050560173
211	0x3dd26bc4	0.10274461
212	0xbd089616	-0.033346258
213	0xbde3a695	-0.111157574
214	0x3b94c80f	0.0045404504
215	0xbe0dee6a	-0.13860479
216	0x3d0e899d	0.034799207
217	0x3cb6ba68	0.022305682
218	0x3cad499c	0.021153264
219	0xbd58aa87	-0.052897003
220	0x3dc40a38	0.095722616
221	0xbbbd3e58	-0.005775254
222	0x3dc65970	0.096850276
223	0x3d7e8c9c	0.062145814
224	0x3d20cb9e	0.039256684
225	0x3db2373e	0.08701943
226	0x3ddcd134	0.1078209
227	0xbdc0b0e8	-0.09408742
228	0x3cebcd1a	0.028784323
229	0x3c338d6d	0.0109590115
230	0xbe152177	-0.14563547
231	0x3d5fdd1b	0.054654222
232	0x3d38f416	0.045154653
233	0xbd5ba977	-0.05362841
234	0xbd447ee5	-0.04797258
235	0xbd98b952	-0.07457222
236	0x3d1e55b4	0.03865595
237	0xbcf2146e	-0.029550757
238	0xbdcd6606	-0.10029225
239	0x3cb7c33b	0.02243196
240	0x3d04b10a	0.0323954
241	0x3ca19f7c	0.019729368
242	0xbd1e1294	-0.038591936
243	0x3dac5045	0.08413748
244	0x3e140ab4	0.14457208
245	0xbd4c3c9a	-0.04986248
246	0xbdb1e71e	-0.0868666
247	0x3d44da23	0.048059594
248	0x3d3be8e8	0.045876414
249	0xbe03af01	-0.12859727
250	0xbdb397fb	-0.08769222
251	0xbdd87dd7	-0.10570877
252	0xbdbc3934	-0.09190598
253	0xbcd6bbd5	-0.026212612
254	0xbce127bd	-0.027484769
255	0xbddcffe4	-0.10790995

conv.1.0.bias f4 [16]
0	0xbe4e26ef	-0.2013204
1	0xbcd64513	-0.026155984
2	0x3d559e33	0.052152824
3	0xbd42f8fb	-0.047600728
4	0xbe02ac31	-0.12760998
5	0x3d89ba66	0.06725006
6	0x3c23d5bc	0.009999689
7	0x3c56e516	0.013116142
8	0xbabf6a55	-0.0014603833
9	0xbd3d5c83	-0.046230804
10	0x3db198ef	0.08671748
11	0xbe40b770	-0.18819976
12	0xbdb9bf5c	-0.09069702
13	0xbde92abb	-0.11385103
14	0x3d266aee	0.04062932
15	0x3d8a73b5	0.067603506

conv.2.0.weight f4 [32, 16, 3, 3]
0	0xbd6e2fbe	-0.058151
1	0xbd461b1b	-0.048365694
2	0xbd8d77b8	-0.069076
3	0xbd867680	-0.06565571
4	0x3d536abc	0.05161546
5	0xbd21123d	-0.039324034
6	0x3d912e8b	0.070889555
7	0x3da7172a	0.08158715
8	0x3d1f598d	0.03890376
9	0x3d0bb470	0.034107625
10	0x3ddab1b1	0.10678423
11	0xbbe4c4f7	-0.006981488
12	0xbdbb44ed	-0.09144006
13	0x3b27b2ee	0.0025588828
14	0xbdb67cda	-0.08910532
15	0xbd2b841e	-0.041874044
16	0xbd82f55f	-0.06394457
17	0xbccedf77	-0.02525304
18	0xbd8b3cf1	-0.06798733
19	0x3d3be223	0.045869958
20	0xbd66d4df	-0.056355353
21	0x3cf94065	0.030426214
22	0xbdb4b6ec	-0.08823952
23	0xbdbd843c	-0.09253737
24	0x3d1a8feb	0.037734907
25	0x3d84ab94	0.064780384
26	0xbc6ce83b	-0.014459665
27	0x3d62bf29	0.055358086
28	0xbd153f62	-0.0364374
29	0xbcd0951a	-0.025461722
30	0x3e2786e8	0.16360056
31	0x3de4d49b	0.11173364
32	0x3d01d1c1	0.031694178
33	0x3959e4da	0.00020779987
34	0xbd8dccb3	-0.06923809
35	0xbd27abd8	-0.040935367
36	0xbdc975fd	-0.098369576
37	0xb9518eb3	-0.00019984953
38	0xbd4b09fe	-0.049570076
39	0x3d62922c	0.05531518
40	0xbd88b1d4	-0.06674543
41	0x3d83d3d8	0.0643689
42	0x3ce5f6c7	0.028071774
43	0x3d4e5252	0.050371476
44	0xbd239d4d	-0.039944936
45	0xbbf2e300	-0.0074123144
46	0xbc8f099d	-0.017460639
47	0x3d56e7a1	0.052466992
48	0xbd85338d	-0.06503973
49	0xbdd84861	-0.1056068
50	0x3da8c205	0.08240131
51	0xbd9b74be	-0.07590626
52	0xbc93b189	-0.018028991
53	0xbd809610	-0.06278622
54	0x3e2bd15a	0.1677908
55	0x3e2d1c27	0.1690527
56	0x3e437613	0.1908801
57	0x3d08dd29	0.03341404
58	0x3df4d08b	0.11953839
59	0x3de46e93	0.11153903
60	0x3cea3151	0.028587969
61	0xbd62559f	-0.055257436
62	0x3d045df4	0.032316163
63	0xbd301da4	-0.042997018
64	0x3cd98f0d	0.02655747
65	0x3c6d203b	0.014473016
66	0xbd60aad6	-0.05485042
67	0xbdc38fbf	-0.09548902
68	0x3d2bc82a	0.04193894
69	0x3cac5cc4	0.021040328
70	0x3dd916f4	0.10600081
71	0xbd3a7582	-0.04552222
72	0xbdc48ec6	-0.09597544
73	0x3cff09e0	0.031132638
74	0xbd6838ab	-0.056694668
75	0x3e0f9329	0.14020981
76	0x3d1e9e1c	0.038725004
77	0x3ccaf2c2	0.02477396
78	0x3d9844ed	0.074350215
79	0x3db5f8ca	0.088853434
80	0x3cce2207	0.02516271
81	0x3deeb095	0.11654774
82	0xbcf33a41	-0.029690864
83	0x3d8d051f	0.068857424
84	0xbe170f2d	-0.14751883
85	0xbd8d1120	-0.06888032
86	0xbd6e65a0	-0.058202386
87	0xbd6b0a63	-0.057382952
88	0x3d92921e	0.07156776
89	0x3b91f2f4	0.004454011
90	0xbd6d5073	-0.05793805
91	0x3d8b48a0	0.068009615
92	0x3d677560	0.056508422
93	0xbd320d2e	-0.0434696
94	0x3d4b74a5	0.049671788
95	0x3d4067b2	0.04697389
96	0x3d63026a	0.055422224
97	0x3cbfe770	0.023425788
98	0x3d9bdd9e	0.076106295
99	0xbcb3aa28	-0.021931723
100	0xbd2d0352	-0.042239495
101	0xbc6c13f8	-0.014409058
102	0x3d59b684	0.053152576
103	0xbd8ef1d9	-0.069797225
104	0xbce18867	-0.027530862
105	0x3db97c3a	0.090568975
106	0x3c7b0377	0.01532065
107	0x3da12be6	0.07869701
108	0x3d215cd2	0.03939516
109	0xbd970d20	-0.0737555
110	0xbdcbbd68	-0.09948236
111	0x3d9de7fe	0.077102646
112	0x3d18c2ff	0.037295338
113	0x3d04ed9e	0.032453172
114	0xbca9b6d7	-0.020717068
115	0xbd493453	-0.049122166
116	0xbc4d9cf3	-0.012549627
117	0xbd9373e7	-0.07199841
118	0xbd1dcd91	-0.03852612
119	0xbd8aa4b7	-0.06769698
120	0xbd1f07c7	-0.038825776
121	0xbd922c20	-0.071373224
122	0xbda602cf	-0.081060044
123	0x3c888e14	0.01666931
124	0x3d98f6ac	0.07468924
125	0x3d3bc912	0.045846052
126	0x3d19e701	0.037573818
127	0x3dc2a62a	0.095043495
128	0x3d97efb4	0.074187666
129	0xbc587170	-0.013210639
130	0x3ce95072	0.028480742
131	0x3d8c85e4	0.06861475
132	0x3dc6185a	0.096726134
133	0x3c9f61c8	0.019455805
134	0x3d01319f	0.031541463
135	0x3e7f8e49	0.24956621
136	0x3e71338e	0.23554823
137	0x3e117c6f	0.14207624
138	0x3d851f51	0.06500114
139	0x3d7bc3eb	0.06146614
140	0x3d4cf8e5	0.05004205
141	0x3dd914df	0.10599684
142	0xbc05f9fd	-0.008177278
143	0x38393bc4	4.41631e-05
144	0x3da2ed2c	0.07955393
145	0x3d8e0f52	0.06936516
146	0x3d882443	0.066475414
147	0xbd0401ea	-0.032228388
148	0x3d847a36	0.064686224
149	0xbc9879d9	-0.018612789
150	0x3bd6182a	0.0065336423
151	0xbda12ea2	-0.07870223
152	0xbd8ef9ac	-0.06981215
153	0xbd3e9012	-0.046524115
154	0xbdb2fd45	-0.087397136
155	0xbde0b240	-0.109714985
156	0x3e1a01ba	0.15039721
157	0xbc70e975	-0.014704098
158	0x3d9c1bf7	0.07622521
159	0x3db69ae5	0.089162625
160	0xbd291c55	-0.041286785
161	0x3dbbed6f	0.09176146
162	0x3c2a4f93	0.010394949
163	0xbcab1410	-0.02088359
164	0x3d8e4552	0.069468156
165	0x3ce7391f	0.02822548
166	0xbc339232	-0.010960149
167	0xbc85b53e	-0.016321775
168	0xbdc6b4cd	-0.09702454
169	0x3d4acf7c	0.04951428
170	0xbdaad8b9	-0.08342118
171	0xbcab5faf	-0.020919649
172	0xbd8d7898	-0.06907767
173	0xbd3e5282	-0.046465404
174	0xbd1b4b64	-0.037913695
175	0xbd1c6f15	-0.038191874
176	0x3ca738cb	0.020412823
177	0x3d1a8348	0.037722856
178	0x3d88a3a4	0.06671837
179	0x3d8c5f90	0.068541646
180	0xbcf20217	-0.029542012
181	0xbc48c710	-0.012254491
182	0x3d23fb48	0.040034562
183	0x3d6f470e	0.058417372
184	0xbccf9e3d	-0.025344009
185	0x3cedf44f	0.02904716
186	0xbac3133b	-0.001488305
187	0xbd50133a	-0.050799586
188	0xbd676277	-0.056490388
189	0x3c3ae81a	0.011407876
190	0x3cb01058	0.021492168
191	0x3daf7275	0.08566753
192	0x3de27745	0.11057905
193	0x3d858ca7	0.06520968
194	0x3d1abf4a	0.037780084
195	0xbc5d8e4a	-0.013522694
196	0xbda69b88	-0.08135134
197	0xbd40bbe7	-0.047054198
198	0xbda8a8ed	-0.08235345
199	0xbe8fed19	-0.2811058
200	0xbeb542f0	-0.35402632
201	0x3e1f5861	0.15561058
202	0x3d886680	0.06660175
203	0x3c9aea60	0.018910587
204	0xbaad14f6	-0.0013205099
205	0xbcd1e6f6	-0.025622826
206	0xbbf85993	-0.0075790375
207	0x3c5d3953	0.013502437
208	0xbd01f571	-0.03172821
209	0xbc97bd80	-0.018522978
210	0x3da2dd88	0.0795241
211	0xbd73a05f	-0.059479114
212	0x3c246e84	0.010036115
213	0x3cfa0e7a	0.030524481
214	0xbd63dd24	-0.055630818
215	0xbdd34667	-0.103161626
216	0xbd126592	-0.035741396
217	0x3d9a6467	0.075386815
218	0xbc30b070	-0.0107842535
219	0xbd55138c	-0.052020594
220	0xbcdc558e	-0.026896264
221	0x3ca2b133	0.019859886
222	0x3daa1ecd	0.08306656
223	0xbd2cc668	-0.042181402
224	0x3d5a17b0	0.053245246
225	0xbcedc5c3	-0.029024964
226	0xbd71ed7c	-0.059064373
227	0xbd67d65b	-0.05660091
228	0x3e219067	0.15777741
229	0x3d400ea2	0.046888955
230	0x3d569e0f	0.05239683
231	0xbca3b713	-0.019984758
232	0x3c7548f6	0.0149710085
233	0x3d736571	0.059422914
234	0xbd9c6d55	-0.07638041
235	0xbd4c5cce	-0.049893193
236	0x3d119ace	0.035548024
237	0x3dd0d700	0.10197258
238	0xbcdf5e5b	-0.027266672
239	0x3d8cb83e	0.06871079
240	0x3dbe7567	0.092997365
241	0x3d2a8c7c	0.041637883
242	0x3d71f145	0.059067983
243	0x3cb55fed	0.022140468
244	0x3da0127c	0.078160256
245	0x3c376537	0.011193565
246	0x3c93544f	0.017984537
247	0x3bd669f3	0.006543392
248	0xbca8ba64	-0.02059669
249	0xbd6d6cea	-0.057965197
250	0xbdae55a9	-0.08512432
251	0xbda41f59	-0.080137916
252	0xbdb13386	-0.086524054
253	0x3bc87db6	0.0061185015
254	0xbcd450e2	-0.025917474
255	0xbd848136	-0.064699575

conv.2.0.bias f4 [32]
0	0x3a878da7	0.0010341898
1	0xbd77e893	-0.060524534
2	0xbd656c84	-0.05601169
3	0x3e07e67f	0.13271521
4	0xbda90cda	-0.08254404
5	0x3d90b649	0.07066018
6	0x3dd31d95	0.10308377
7	0x3d44920b	0.04799084
8	0xbdb34673	-0.087536715
9	0xbd905add	-0.07048581
10	0xbd08a0c2	-0.033356436
11	0xbe2973f5	-0.1654814
12	0xbe108b16	-0.14115557
13	0xbd16a9ac	-0.036782905
14	0xbb63d17e	-0.0034762318
15	0x3acf2feb	0.0015807127
16	0xbd06a280	-0.032869816
17	0x3e47ee82	0.19524577
18	0x3da0b916	0.07847802
19	0x3cb40e94	0.021979608
20	0x3ce07b9f	0.027402697
21	0x3e02cdb9	0.1277379
22	0x3cbaa4ee	0.022783723
23	0x3e11c66d	0.1423585
24	0xbcca6153	-0.02470461
25	0xbce30148	-0.027710572
26	0x3cc7df9c	0.024398617
27	0x3d9464ad	0.07245765
28	0xbd31f1e0	-0.04344356
29	0x3e0474f3	0.12935238
30	0x3d86292b	0.06550821
31	0x3c774509	0.015092143

fc.0.0.weight f4 [128, 512]
0	0x3d79d76d	0.06099646
1	0x3cd4a211	0.025956186
2	0xbb26e206	-0.002546431
3	0x3c76ef59	0.015071713
4	0xbc94c281	-0.018159153
5	0xbc7d1b17	-0.015448353
6	0xbdc240f7	-0.09485047
7	0xbd8089ea	-0.06276305
8	0xbe224b8c	-0.15849131
9	0xbdca3d6e	-0.09874998
10	0x3c900591	0.01758078
11	0xbd437a44	-0.047724023
12	0xbda0c7b7	-0.078505926
13	0xbd1362b3	-0.0359828
14	0xbd6e9421	-0.058246735
15	0xbd33d249	-0.043901715
16	0x3d9d5f75	0.076842226
17	0x3d32eb10	0.043681204
18	0x3c94f536	0.018183332
19	0x3d7fe717	0.062476244
20	0x3d1bfb50	0.038081467
21	0x3d94205d	0.07232735
22	0x3c8aae45	0.016928801
23	0x3d941ce2	0.072320715
24	0xbd8c2b99	-0.06844253
25	0xbc986747	-0.018603934
26	0x3d35fcc3	0.044430505
27	0x3bf8fb85	0.007598343
28	0xbc9a2687	-0.0188172
29	0xbd83712c	-0.0641807
30	0x3ab927f2	0.0014126285
31	0xbcb59e0d	-0.022170091
32	0x3c299de7	0.010352588
33	0xbc12d800	-0.008962631
34	0x3c46e1da	0.012138808
35	0xbc8db7dd	-0.017299587
36	0xbb5883f3	-0.0033037632
37	0xbc0e7fcf	-0.008697464
38	0xbc92758c	-0.017878316
39	0xbd3940e9	-0.04522792
40	0xbe026a5e	-0.12735888
41	0x3c98add2	0.018637571
42	0xbd618dd3	-0.055066895
43	0xbdbee961	-0.09321857
44	0xbdc95b5e	-0.0983188
45	0xbd45d812	-0.048301764
46	0xbd781f02	-0.060576446
47	0xbd96050f	-0.073251836
48	0xbda6cbc9	-0.08144338
49	0xbdaf16cb	-0.08549269
50	0xbdb64611	-0.08900083
51	0xbcf15d77	-0.029463513
52	0x3d874b47	0.06606155
53	0x3c6287ea	0.01382635
54	0xbd535002	-0.051589973
55	0x3c168548	0.00918705
56	0x3d94eb05	0.07271389
57	0x3db28a86	0.087178275
58	0x3d359cf7	0.044339146
59	0x3db3775f	0.087630026
60	0x3d1d0fcd	0.038345147
61	0x3c958fef	0.01825711
62	0x3da9282c	0.08259615
63	0x3cb777e8	0.022396043
64	0x3dee5414	0.116371304
65	0x3da62efe	0.08114432
66	0x3d8df61e	0.06931709
67	0x3cc43aa1	0.023953738
68	0x3bc5f37b	0.006040988
69	0x3d99cf76	0.07510273
70	0xbc5d8b0e	-0.013521923
71	0x3da00e42	0.078152195
72	0xbd7b7290	-0.061388552
73	0xbc39fa85	-0.011351232
74	0x3ca1a349	0.01973118
75	0x3d2a6cd1	0.04160768
76	0xbd5df791	-0.054191176
77	0xbcedce57	-0.029029055
78	0xbc9407ba	-0.01807009
79	0xbd924c10	-0.07143414
80	0xbd418621	-0.047247056
81	0x3ce0d92e	0.02744731
82	0x3be63919	0.0070258495
83	0x3db24ccf	0.08706056
84	0x3c8a3407	0.016870512
85	0x3d1cbc18	0.038265318
86	0xbca5415a	-0.020172764
87	0x3d20f846	0.039299272
88	0x3d4b4724	0.04962839
89	0x3cc1b662	0.023646537
90	0x3d18914c	0.03724794
91	0x3d46ba2a	0.048517384
92	0x3dac5aeb	0.08415779
93	0x3cd81d28	0.02638109
94	0x3d90ff11	0.070799
95	0x3c3fbbd1	0.011702494
96	0x3c911179	0.017708527
97	0x3cf04b96	0.029332917
98	0xbb3f005c	-0.0029144501
99	0x3d5e0071	0.05419964
100	0xbc824a99	-0.015904712
101	0xbd5b459b	-0.053533178
102	0xbd6520b2	-0.055939384
103	0x3c0099cb	0.007849167
104	0xbd4d4676	-0.050116025
105	0x3d09184f	0.033470448
106	0xbd6d7787	-0.05797532
107	0xbd52f1f5	-0.05150028
108	0xbe026578	-0.1273402
109	0xbcd2db04	-0.0257392
110	0x3c4382cf	0.011933043
111	0xbe072cea	-0.13200727
112	0x3b41e2cb	0.0029584642
113	0x3d3190d3	0.043351006
114	0x3d54a993	0.05191953
115	0xbcb6075e	-0.02222031
116	0xbca12911	-0.019672902
117	0xbd732242	-0.059358843
118	0xbd20f5ed	-0.039297033
119	0xbc5fa780	-0.013650775
120	0xbcf228a6	-0.029560398
121	0xbd54debf	-0.05197024
122	0xbdc4348e	-0.095803365
123	0xbd1d2203	-0.038362514
124	0xbdd12418	-0.102119625
125	0xbe1755f7	-0.14778887
126	0xbdd4a9ea	-0.10383971
127	0xbda7e00a	-0.08197029
128	0x3cc7e400	0.024400711
129	0x3a8b8d08	0.0010646889
130	0x3cd28e1f	0.025702534
131	0x3c815ee3	0.015792316
132	0xbd184edb	-0.037184577
133	0x3d057fc5	0.032592554
134	0xbbb62554	-0.005558649
135	0xbe3b186c	-0.18271035
136	0xbde976b0	-0.11399591
137	0xbda2d38f	-0.07950508
138	0xbdc2de31	-0.09515036
139	0xbda52693	-0.08063998
140	0xbd9df8ee	-0.07713495
141	0xbcc532c5	-0.02407206
142	0xbd58b4f9	-0.052906964
143	0xbd8d2231	-0.06891287
144	0x3d3212df	0.043475028
145	0x3a209fd8	0.0006127334
146	0x3bc97ac1	0.0061486666
147	0xbc10ef32	-0.008846091
148	0x3c85464c	0.016268872
149	0x3a2b013c	0.0006523316
150	0x3cfb266a	0.030657966
151	0x3d0b5905	0.034020443
152	0xbd8a2a6b	-0.06746372
153	0x3b900a6c	0.0043957736
154	0x3bbe7a17	0.005812894
155	0x3b962caa	0.004582961
156	0xbd3b49dd	-0.04572474
157	0xbc616e25	-0.013759171
158	0xbd89ec88	-0.06734568
159	0x3c5160a6	0.01277939
160	0xbb84fad5	-0.004058222
161	0x3d608211	0.05481154
162	0x3d00633f	0.03134465
163	0x3dcd38af	0.10020577
164	0xbca317a0	-0.019908726
165	0xbd13ea33	-0.03611202
166	0xbbbe45c6	-0.0058066575
167	0x3d561737	0.052268233
168	0xbccaabee	-0.024740186
169	0xbd53827d	-0.051638115
170	0xbdb50f9f	-0.0884087
171	0xbd8d0be9	-0.06887037
172	0xbdbfb45d	-0.093605734
173	0xbd2735a4	-0.04082264
174	0xbdc28104	-0.09497264
175	0xbd9d17cb	-0.07670554
176	0xbd18302d	-0.03715532
177	0xbcd36575	-0.025805214
178	0xbc308a6e	-0.010775192
179	0xb9de377f	-0.00042384487
180	0x3dd4a3b8	0.103827894
181	0x3dbd0801	0.09230042
182	0x3dae1b07	0.08501249
183	0x3dbdd30f	0.09268772
184	0x3c858c75	0.016302327
185	0x3d9cce52	0.0765654
186	0xbc316986	-0.010828381
187	0x3c0ebc80	0.008711934
188	0x3d89cf79	0.067290254
189	0xbb82d4fb	-0.0039926744
190	0xbcc979d4	-0.024594225
191	0xbcc9fae6	-0.02465577
192	0x3b209973	0.0024505525
193	0xbc05479c	-0.008134749
194	0x3d62afd3	0.05534346
195	0x3d9add10	0.075616956
196	0xbd427645	-0.047476072
197	0x3cfcad86	0.030844461
198	0x3d217d38	0.03942606
199	0x3c2261d7	0.009911022
200	0xbe3a3f41	-0.18188192
201	0xbceca165	-0.028885553
202	0xbc78959e	-0.01517239
203	0xbcf31751	-0.029674204
204	0xbd11228e	-0.035433345
205	0xb9a337f5	-0.00031131474
206	0xbd8643fe	-0.06555937
207	0xbd752aa9	-0.059855137
208	0x3c69b4a3	0.014264259
209	0x3d154114	0.036439016
210	0x3da6a98e	0.08137809
211	0xbcda5ef4	-0.026656605
212	0xbd426655	-0.047460873
213	0xbc0744f5	-0.008256187
214	0xbd25aeec	-0.04045002
215	0x3d8c8dc9	0.06862981
216	0xbd64d81d	-0.055870164
217	0xbccc3238	-0.02492629
218	0xbd8f30a6	-0.06991701
219	0xbd864f2a	-0.06558068
220	0xbd2c2ee2	-0.0420369
221	0xbdc05e18	-0.09392947
222	0xbe3a06a1	-0.18166591
223	0xbdc3f24a	-0.09567697
224	0x3d949f16	0.07256906
225	0x3d9baef4	0.07601729
226	0x3cbce5e5	0.023058841
227	0x3d3b0a4a	0.04566411
228	0x3d03b24a	0.03215245
229	0xbc2a9820	-0.010412246
230	0xbb75b6b3	-0.003749293
231	0xbdb8c4e5	-0.0902193
232	0xbe175d55	-0.14781697
233	0xbdc85b9f	-0.097831
234	0xbdee96d5	-0.11649863
235	0xbd2b5210	-0.041826308
236	0xbe0ca07b	-0.13733093
237	0xbddfefe0	-0.109344244
238	0xbdda48e8	-0.10658437
239	0xbd70900d	-0.058731128
240	0x3b8d7e07	0.004318002
241	0x3bcc29ac	0.0062305536
242	0xbd32e99f	-0.04367983
243	0xbcb03757	-0.021510763
244	0x3d83e5da	0.06440325
245	0xbcba7b02	-0.022763733
246	0xbc823b9f	-0.01589757
247	0xba043982	-0.000504397
248	0x3d9471da	0.07248278
249	0xbc5b9cd2	-0.013404088
250	0x3d68e5c3	0.056859743
251	0x3d0fbc79	0.03509185
252	0x3d8d5255	0.06900469
253	0x3d575cf1	0.05257887
254	0x3cc1fcbe	0.023680087
255	0xbcd89d7f	-0.026442287

fc.0.0.bias f4 [128]
0	0x3b8c75fb	0.0042865253
1	0x3e0a92b6	0.13532528
2	0x3d12348a	0.035694636
3	0x3c11804c	0.008880686
4	0xbd6cd88a	-0.057823695
5	0xbd5ef338	-0.05443117
6	0x3c40970d	0.011754763
7	0x3d811db0	0.063044906
8	0xbc1c0d47	-0.00952465
9	0x3d308090	0.043091357
10	0xbd0688e0	-0.032845378
11	0x3ce01154	0.027352013
12	0xbcd96518	-0.026537463
13	0x3dfbf9ff	0.12303542
14	0xbc0425cd	-0.008065653
15	0xbd3228e1	-0.043496016
16	0x3ba93104	0.005163314
17	0x3df25b15	0.11833779
18	0xbc0e9c61	-0.008704276
19	0xbd394e0b	-0.045240443
20	0xbd10d089	-0.035355125
21	0x3e15ee88	0.14641774
22	0xbd25d887	-0.0404897
23	0xbd3ab1b0	-0.045579612
24	0xbd99f4ee	-0.0751742
25	0x3d10f702	0.035391815
26	0x3e19a4a8	0.15004218
27	0x3cfbc608	0.030734077
28	0xbd7b9501	-0.061421398
29	0x3dd895d9	0.10575456
30	0x3de34909	0.11097915
31	0x3cec27ef	0.028827636
32	0xbd8cc4fc	-0.06873509
33	0x3d816e5e	0.06319879
34	0xbd84f62d	-0.06492267
35	0xbd697d29	-0.057004128
36	0x3ce74b38	0.02823411
37	0xbc0d242a	-0.008614579
38	0x3c227fef	0.009918197
39	0xbd2c0a0a	-0.04200176
40	0x3db60c59	0.08889074
41	0xbc07bfa5	-0.008285438
42	0xbc8c8262	-0.017152015
43	0x3caa8e10	0.020819694
44	0x3cd8315c	0.026390724
45	0xbd06728e	-0.03282409
46	0x3d39b94f	0.04534274
47	0x3c049793	0.008092779
48	0xbcfa7c71	-0.030576916
49	0x3c0d2bd5	0.008616407
50	0xbd0909ac	-0.03345649
51	0x3c94edad	0.018179739
52	0xbd7076b9	-0.058706973
53	0xbd15c657	-0.036566105
54	0xbceaa4ff	-0.02864313
55	0x3d7f55e4	0.06233777
56	0xbd290958	-0.041268677
57	0x3e0f8d8f	0.14018844
58	0x3d5d986a	0.05410043
59	0x3d129c9a	0.03579388
60	0xbd1a0bd5	-0.03760894
61	0x3dd3e378	0.103461206
62	0xbd0ad342	-0.033892877
63	0xbbc1036d	-0.005890301
64	0xbd833a37	-0.06407588
65	0xbb09f2fb	-0.0021049369
66	0xbd24cfb6	-0.04023715
67	0x3d148a2d	0.036264587
68	0xbc843f96	-0.016143601
69	0xbd439621	-0.047750596
70	0x3d617663	0.055044543
71	0xbb8d151b	-0.0043054945
72	0x3cfa0b6f	0.03052303
73	0x3d88dd07	0.066827826
74	0x3d22f8c5	0.039788026
75	0x3e24908a	0.16070762
76	0x3c64a8b6	0.013956239
77	0xbb966fe6	-0.004590976
78	0x3d6e7a2a	0.058221973
79	0x3dab6ce6	0.0837038
80	0xbc87d15e	-0.016579326
81	0xbcef677c	-0.02922415
82	0xbc891ed6	-0.016738337
83	0x3dc92f36	0.09823458
84	0xba8b7303	-0.0010639135
85	0xbd305d97	-0.043058004
86	0xbd887f26	-0.06664877
87	0x3d6accb0	0.05732411
88	0x3d9789ba	0.07399316
89	0xbd1c7164	-0.038194075
90	0xbd117c6e	-0.035519056
91	0xbd57fbef	-0.052730497
92	0x3cf46055	0.029831091
93	0x3c0bbb08	0.008528478
94	0xbd90db68	-0.070730984
95	0xbc527f01	-0.012847663
96	0xbce2a0b8	-0.027664527
97	0x3ccfcc8c	0.02536609
98	0x3c866a46	0.016408097
99	0x3cef7452	0.02923027
100	0x3d80c67f	0.0628786
101	0x3dfa3b16	0.12218301
102	0x3dece817	0.11567705
103	0xbcb65f8e	-0.02226236
104	0xbd3ac3c5	-0.045596857
105	0x3b087c3e	0.0020826007
106	0xbc762310	-0.015023008
107	0x3e2a1dc4	0.16612917
108	0x3ce370ab	0.027763685
109	0xbd06c94d	-0.03290682
110	0x3bc719c6	0.0060760705
111	0x3e032a57	0.1280912
112	0xbb9fe66c	-0.0048797633
113	0x3aead03a	0.001791484
114	0xbb4729fb	-0.0030390013
115	0x3dfbbb8d	0.12291632
116	0x3dc3cceb	0.095605694
117	0xbd0ba24a	-0.034090318
118	0xbd7161a1	-0.058930997
119	0xbd4e3530	-0.050343692
120	0xbc819d5c	-0.015822105
121	0x3db5155e	0.08841966
122	0x3dd69402	0.10477449
123	0xbd2ecf33	-0.04267807
124	0x3c8dc4ae	0.017305698
125	0xbd4ef70e	-0.05052858
126	0x3c111c5b	0.008856858
127	0x3ce2cf72	0.027686808

fc.1.0.weight f4 [64, 128]
0	0x3d3c3de1	0.04595745
1	0x3bd267dd	0.006421073
2	0x3be42f28	0.0069636293
3	0x3d54d84c	0.05196409
4	0xbcd6cf21	-0.026221814
5	0xbd8a786e	-0.067612514
6	0x3cc2f21d	0.02379709
7	0xbccfca88	-0.02536513
8	0xbdcd0c73	-0.1001214
9	0x3d8d3c73	0.068962954
10	0x3c8129a8	0.015766934
11	0x3d9dcdb7	0.077052526
12	0x3c5ae0c2	0.0133592505
13	0x3e9b0663	0.3027831
14	0xbb20966b	-0.0024503719
15	0xbde6b800	-0.11265564
16	0x3d848bb1	0.064719565
17	0x3cc8ca8e	0.024510648
18	0x3b7d9d61	0.0038698541
19	0xbd02489a	-0.03180752
20	0x3d0e92cb	0.03480796
21	0x3ddaa2b3	0.10675564
22	0xbda7e6b0	-0.08198297
23	0x3d012f56	0.031539284
24	0x3c72be1d	0.014815834
25	0xbd992bae	-0.07479034
26	0x3d2c11c7	0.04200914
27	0x3c9768c9	0.018482583
28	0x3e0fba22	0.14035848
29	0xbdb4b1a1	-0.088229425
30	0x3dc9a611	0.09846128
31	0x3d8c0aa6	0.068379685
32	0x3da802d3	0.08203664
33	0xbd54e2ba	-0.051974036
34	0x3b78a6b9	0.0037941171
35	0x3d80726f	0.062718265
36	0x3db4338b	0.087988935
37	0xbd16491d	-0.03669082
38	0xbda84cb8	-0.08217758
39	0xbd86c762	-0.06580998
40	0x3e1e84eb	0.15480392
41	0xbd877491	-0.0661403
42	0xbd1dc9e2	-0.03852261
43	0xbcbcf844	-0.023067601
44	0x3a31b6d4	0.00067792577
45	0x3cdb7516	0.02678923
46	0x3d03768e	0.032095484
47	0xbc012f94	-0.007884879
48	0x3d81ff9d	0.063475825
49	0x3d49e145	0.0492871
50	0x3d3928a3	0.04520477
51	0xbd5c3e26	-0.053770207
52	0xbdc0d1aa	-0.0941499
53	0xbd76e56a	-0.06027738
54	0xbd0522ef	-0.03250402
55	0x3e238ac6	0.15970907
56	0x3d1a436b	0.03766195
57	0x3d43705b	0.047714572
58	0xbd925ceb	-0.07146629
59	0x3d9ea951	0.07747138
60	0x3ce702a2	0.028199498
61	0x3d36097b	0.044442635
62	0xbc9d437b	-0.019197216
63	0xbe8a42a6	-0.27003974
64	0x3daf132f	0.08548581
65	0x3c83eb81	0.016103508
66	0x3da243d5	0.07923094
67	0x3e0fdd1e	0.14049193
68	0x3d286f06	0.041121505
69	0xbcade849	-0.021228926
70	0xbc880df3	-0.016608214
71	0x3e25dfb7	0.16198622
72	0xbd0ab72f	-0.033866104
73	0x3d7ec9c2	0.06220413
74	0xbdd55bcc	-0.104178995
75	0x3d145076	0.036209546
76	0xbda5ccb8	-0.08095688
77	0xbca85c86	-0.020551931
78	0xbca64b44	-0.020299561
79	0xbcf07f83	-0.029357677
80	0x3d395866	0.04525032
81	0xbdb7b7e4	-0.08970621
82	0x3d954229	0.0728801
83	0x3d8f9605	0.07011036
84	0x3d263366	0.04057636
85	0xbda0dbb9	-0.07854409
86	0x3df0cd0b	0.11757859
87	0xbdf52398	-0.119696796
88	0x3d7ffdec	0.06249802
89	0xbd84d72b	-0.064863525
90	0x3c85a941	0.016316058
91	0x3d62b562	0.05534876
92	0xbc933795	-0.01797084
93	0x3c989a21	0.018628182
94	0xbd658f2b	-0.05604474
95	0xbe3438f1	-0.17599846
96	0xbd14c0cb	-0.036316674
97	0x3da93046	0.082611606
98	0xbd871df7	-0.06597512
99	0x3d555c34	0.052089885
100	0xbd861b2e	-0.06548153
101	0x3d5019d8	0.050805897
102	0x3d83259d	0.064036585
103	0x3d08955a	0.033345558
104	0x3d387d9f	0.045041677
105	0x3cb03993	0.021511829
106	0xbdc00d39	-0.09377522
107	0x3e9337e7	0.28753588
108	0x3c650845	0.013979022
109	0xbc1d7226	-0.009609735
110	0x3e15d70f	0.1463282
111	0x3dd912e3	0.105993055
112	0x3d9c1de9	0.076228924
113	0xbc6eda11	-0.014578358
114	0x3db69899	0.089158244
115	0x3de7a9ed	0.11311708
116	0xbdb333d6	-0.08750121
117	0x3db7589f	0.0895245
118	0xbd8adf23	-0.06780841
119	0x3c346301	0.0110099325
120	0xbe307ae8	-0.17234385
121	0x3d99805e	0.07495187
122	0x3e1074ed	0.14107104
123	0x3d02760c	0.03185086
124	0xbdbcfe1e	-0.092281565
125	0xbb1f2442	-0.0024283086
126	0x3c1b03a5	0.009461318
127	0x3c6ccd04	0.014453176
128	0x3d83fffa	0.06445308
129	0xbba133b9	-0.004919496
130	0x3c08d4bf	0.008351504
131	0xbb425dd0	-0.0029657967
132	0xbc1077b8	-0.008817606
133	0xbda86dae	-0.08224045
134	0xbd395474	-0.045246556
135	0xbd653341	-0.055957083
136	0xbdbbeb9a	-0.09175797
137	0xbdd78338	-0.10523075
138	0xbb0238c0	-0.0019870251
139	0xbdd23c05	-0.10265354
140	0xbd74c400	-0.059757233
141	0x3cc30455	0.023805777
142	0xbd14d553	-0.036336254
143	0x3c205bc5	0.009787505
144	0x3d90fcf7	0.07079499
145	0xbd85f81e	-0.06541465
146	0xbd526dd5	-0.051374275
147	0xbd8efd4b	-0.069819055
148	0xbdd970e2	-0.10617234
149	0xbd11290d	-0.03543954
150	0x3cc521f0	0.024064034
151	0xbd27fabe	-0.04101061
152	0xbd66e5db	-0.05637155
153	0xbd9b22cb	-0.075749956
154	0xbb8a0887	-0.0042124423
155	0x3ccb18c5	0.024792084
156	0xbd597ac4	-0.053095594
157	0xbc661636	-0.014043381
158	0xbc51269b	-0.012765552
159	0x3ca28259	0.019837545
160	0xbdad7363	-0.08469274
161	0xbda52789	-0.08064181
162	0xbca965de	-0.020678457
163	0xbd28884b	-0.041145604
164	0xbcfa5872	-0.030559752
165	0x3c54ba48	0.012983866
166	0xbcc2bb6c	-0.02377101
167	0x3ce520d7	0.02796976
168	0xbc531d2f	-0.012885376
169	0xbd18550b	-0.03719048
170	0x3d00e225	0.03146567
171	0x3b63cf80	0.003476113
172	0xbcad2102	-0.021133903
173	0x3b56e5c0	0.003279075
174	0xbd210f61	-0.039321307
175	0x3d963805	0.07334904
176	0xbd73b1f4	-0.05949588
177	0x3d774d1c	0.06037627
178	0xbd17f2c8	-0.03709677
179	0xbc470000	-0.012145996
180	0xbce0da4f	-0.027447848
181	0xbd82c088	-0.06384379
182	0xbc8c563c	-0.017130964
183	0xbd83ee1d	-0.06441901
184	0x3dbb8af9	0.09157366
185	0xbd7a6e6a	-0.061140455
186	0xbcbd2328	-0.023088053
187	0xbdb067ae	-0.08613525
188	0x3d86bd0b	0.06579026
189	0xbd764c09	-0.060131107
190	0xbd3dbc3e	-0.0463221
191	0x3d84d87d	0.06486604
192	0xbd7d49d2	-0.06183798
193	0x3d1b22e6	0.03787508
194	0xbd3d46e1	-0.046210174
195	0xbdbd20d8	-0.0923478
196	0x3c52c6e8	0.012864806
197	0x3d028dbd	0.031873453
198	0xbcbd9d40	-0.023146272
199	0xbd554f5c	-0.052077636
200	0x3c0e7182	0.008694055
201	0xbd87dfda	-0.06634493
202	0xbbb7dc74	-0.005610997
203	0xbb54d878	-0.0032477658
204	0x3ab4adba	0.0013784685
205	0xbd792ba0	-0.06083262
206	0x3d08a97b	0.033364754
207	0xbda34763	-0.079726
208	0xbd4aeaa6	-0.049540184
209	0x3ac429bb	0.001496605
210	0x3d4cb6fc	0.049979195
211	0xbd912ac5	-0.07088236
212	0xbda11b4c	-0.078665346
213	0x3d2405f7	0.04004475
214	0xbd79f66c	-0.06102602
215	0xbdb9b2e1	-0.090673216
216	0xbd8286a4	-0.06373337
217	0x3c9fa5d8	0.01948826
218	0xbc3fd4b0	-0.0117084235
219	0x3c846478	0.016161188
220	0xbc1cd6d0	-0.0095727
221	0xbcb96854	-0.022632755
222	0x3d0b8c96	0.03406962
223	0x3cca4d52	0.024695072
224	0xbcc9d0b9	-0.02463566
225	0xbd6dcd4c	-0.058057114
226	0x3d18103e	0.037124865
227	0x3801f800	3.0986965e-05
228	0x3d264444	0.040592447
229	0xbcda17c8	-0.026622668
230	0x3d2f6a32	0.042825885
231	0x3c02c178	0.007980697
232	0x3be62680	0.0070236325
233	0x3d0421d8	0.03225884
234	0x3d61eea3	0.055159222
235	0xbb1d691a	-0.0024018944
236	0xbdb4b35e	-0.08823274
237	0xbd99bb71	-0.07506455
238	0x3e1e1713	0.1543849
239	0x3b8e9fd7	0.0043525505
240	0xbd94d5f4	-0.07267371
241	0x3c4a12ef	0.012333616
242	0x3d003bc4	0.031306997
243	0xbd399dae	-0.04531639
244	0xbcce379b	-0.025173
245	0xbd9dea51	-0.07710708
246	0xbd262914	-0.04056652
247	0xbd87f5d8	-0.06638688
248	0xbd813538	-0.06308979
249	0x3b23084e	0.0024876776
250	0x38e283ec	0.00010801092
251	0x3d9efba9	0.07762844
252	0x3c811705	0.015758047
253	0x3df8f5a5	0.12156228
254	0xbd61308f	-0.05497795
255	0x3c920664	0.017825313

fc.1.0.bias f4 [64]
0	0x3db31968	0.0874508
1	0xbd80c0a7	-0.062867455
2	0x3d646d2a	0.05576817
3	0xbcc147ff	-0.0235939
4	0x3d191a3b	0.03737853
5	0xbd9b007e	-0.07568453
6	0xbc8768c4	-0.016529448
7	0xbde1eeb5	-0.11031858
8	0x3df6a967	0.1204403
9	0xbd896bb9	-0.067099996
10	0x3df8871d	0.12135146
11	0x3cff4a94	0.031163491
12	0x3d8b7384	0.06809142
13	0xbd3d7154	-0.046250656
14	0x3d6bcfe0	0.057571292
15	0x3e30574e	0.17220804
16	0x3c342f88	0.01099766
17	0x3d6dbe54	0.05804284
18	0x3d387848	0.045036584
19	0xbd0bcd5b	-0.03413139
20	0x3ce0f748	0.027461663
21	0x3e2c279b	0.16811983
22	0x3ab28a6f	0.0013621579
23	0x3dc39499	0.09549827
24	0x3d9acf50	0.07559073
25	0x3e0db929	0.13840164
26	0x3e144abd	0.14481635
27	0x3db8b873	0.09019556
28	0x3d903df3	0.07043066
29	0x3e4f91c3	0.20270447
30	0xbb83101b	-0.0039997227
31	0x3ddbf966	0.10740928
32	0x3bea245a	0.0071454467
33	0x3ceb3ce7	0.028715564
34	0x3e4372a4	0.190867
35	0x3cb2a9ee	0.021809544
36	0x3e023b48	0.12717927
37	0x3df62d4c	0.120203584
38	0x3ca0956d	0.019602502
39	0x3dc9afac	0.0984796
40	0x3d37d985	0.044885177
41	0xbd234c30	-0.03986758
42	0x3e190324	0.14942604
43	0x3d8ea971	0.06965912
44	0xbcf88b45	-0.030339846
45	0x3d73e909	0.05954841
46	0xbd9c6d19	-0.07637996
47	0x3da37e4e	0.07983075
48	0x3c6723c0	0.014107645
49	0x3c8ea26a	0.01741143
50	0xbd266bd4	-0.040630177
51	0xbd93edd1	-0.07223094
52	0xbdeefaad	-0.11668906
53	0xbd87d468	-0.0663231
54	0x3d3f1f49	0.046660695
55	0xbdb75dde	-0.089534506
56	0x3e0ef252	0.13959625
57	0xbdace90f	-0.0844289
58	0xbcf1caa4	-0.029515572
59	0x3dd2ba74	0.10289469
60	0xbdc7b4ff	-0.09751319
61	0xbd2e2dcc	-0.042524144
62	0xbde8cc54	-0.113670975
63	0x3cc0cb76	0.023534518

fc.2.0.weight f4 [10, 64]
0	0x3c501c5f	0.012702077
1	0x3dc8c9f0	0.098041415
2	0xbcf3b285	-0.02974821
3	0x3e2839c0	0.1642828
4	0xbddfc2c5	-0.10925821
5	0x3d89e083	0.06732275
6	0xbe356672	-0.17714861
7	0xbc84bc35	-0.016203025
8	0x3dfe5c6d	0.124199726
9	0x3caf2e85	0.021384487
10	0xbe1ca4a9	-0.15297188
11	0x3d80bf19	0.06286449
12	0xbe2428ac	-0.1603114
13	0xbd451171	-0.048112337
14	0x3cfe1aac	0.031018578
15	0xbde651f8	-0.11246103
16	0x3e2392af	0.15973924
17	0x3bb0a570	0.0053908154
18	0x3e15a43f	0.14613436
19	0x3ddaa7d5	0.10676543
20	0x3de32c01	0.110923775
21	0xbd4e14e3	-0.050312888
22	0xbddd7eb9	-0.10815186
23	0x3da21ce2	0.07915665
24	0xbe229d6b	-0.15880363
25	0x3e070949	0.13187136
26	0xbde3fae7	-0.1113184
27	0xbe63baf7	-0.2223929
28	0x3df5bc96	0.119988605
29	0xbe24fd06	-0.16112146
30	0xbc08bd6c	-0.008345943
31	0x3de16237	0.11005061
32	0x3e03d02d	0.12872382
33	0x3d7f8ef3	0.062392186
34	0xbd13115d	-0.03590523
35	0xbbf928f7	-0.0076037603
36	0xbd18909e	-0.037247293
37	0xbe8a6c69	-0.27035835
38	0x3b27c7ad	0.0025601194
39	0x3dd6a196	0.10480039
40	0x3dc29813	0.09501662
41	0x3e1199ed	0.14218874
42	0x3d270dc8	0.040784627
43	0xbe3cf683	-0.18453412
44	0x3de3ef8c	0.11129674
45	0x3d0eb984	0.03484489
46	0x3bba21d9	0.0056803045
47	0xbe044cb5	-0.12919886
48	0xbdf93766	-0.121687695
49	0xbde127d9	-0.109939285
50	0xbdd35869	-0.10319597
51	0x3c65ce10	0.01402618
52	0x3c8660cc	0.016403578
53	0x3d98edc2	0.07467224
54	0x3e03cf2d	0.12872
55	0xba0c5ede	-0.00053547125
56	0x3d01e9b5	0.03171702
57	0x3b31e7e9	0.0027146286
58	0xbd21004e	-0.03930693
59	0xbc8fe2d6	-0.017564218
60	0xbb0e457e	-0.00217089
61	0xbe3e5815	-0.18588288
62	0x3d38c840	0.04511285
63	0xbcbd6ea7	-0.023124052
64	0xbe35783f	-0.17721651
65	0xbb81ca71	-0.0039609005
66	0x3ba907e8	0.005158413
67	0x3cfe41a1	0.031037154
68	0x3daf2d0f	0.08553516
69	0x3dbf0038	0.093262136
70	0x3d26eb12	0.040751524
71	0xbcfe341f	-0.031030713
72	0xbd6b3c58	-0.057430595
73	0xbe02fa14	-0.1279071
74	0xbd39102f	-0.04518145
75	0x3e00c345	0.1257449
76	0xbd011eb1	-0.03152341
77	0xbdbac10c	-0.09118852
78	0xbe86be04	-0.26316845
79	0xbe180825	-0.14846857
80	0x3d164caf	0.036694225
81	0x3df0e22d	0.117618896
82	0x3d906ec6	0.07052378
83	0x3df82b56	0.12117641
84	0x3e15f167	0.14642869
85	0xbd8fae7f	-0.07015704
86	0xbe4e1f02	-0.20129016
87	0x3dec9e97	0.11553686
88	0xbe3c20cd	-0.18371888
89	0xbdef5205	-0.11685566
90	0xbe8acbd9	-0.27108648
91	0xbe177503	-0.1479073
92	0xbe8654a2	-0.26236445
93	0xbe3319d9	-0.17490329
94	0x3e2fe60e	0.17177603
95	0x3ddbe9b3	0.10737934
96	0xbe85418e	-0.26026577
97	0x3dac5586	0.0841475
98	0xbe2e5e65	-0.17028196
99	0xbd2a40a8	-0.041565567
100	0x3dca5b1f	0.09880661
101	0x3dc8219f	0.09772038
102	0x3d1399c7	0.036035325
103	0x3e0a9bd7	0.1353601
104	0xbe07d873	-0.13266163
105	0xbe3afa34	-0.18259507
106	0x3d92e952	0.071734086
107	0x3e0847bd	0.13308616
108	0x3db047e6	0.086074635
109	0x3e451296	0.19245371
110	0xbd463cb2	-0.048397727
111	0xbe1cbc22	-0.15306142
112	0x3deee8d2	0.11665501
113	0xbc4c20b0	-0.012458965
114	0xbd9d15e9	-0.07670195
115	0x3d0007e0	0.03125751
116	0xbd39fc61	-0.045406703
117	0xbd815119	-0.06314296
118	0xbdd9f3aa	-0.10642178
119	0xbe225896	-0.15854105
120	0x3dc1c9cf	0.0946232
121	0x3cd3d602	0.025858883
122	0xbded273e	-0.115797505
123	0x3e05c6d8	0.13064134
124	0xbd0d5710	-0.034506857
125	0xbe41b0ae	-0.18915054
126	0xbc277e43	-0.010222974
127	0xbe8cc0c9	-0.27490833
128	0x3d6555b0	0.05598992
129	0xbe1c3e00	-0.15258026
130	0xbe155603	-0.14583592
131	0x3d9a776f	0.075423114
132	0x3d940591	0.07227624
133	0xbe1defd0	-0.15423512
134	0xbc8736c4	-0.016505606
135	0x3c02f58a	0.007993111
136	0xbbc3dbbc	-0.005977122
137	0xbd894c4b	-0.06704005
138	0x3de4672a	0.111524895
139	0x3cff64bc	0.031175964
140	0xbe7400dc	-0.23828453
141	0x3d429602	0.04750634
142	0x3df7201c	0.12066671
143	0x3cf281a3	0.029602831
144	0x3daaf178	0.08346838
145	0xbc8ad528	-0.016947344
146	0xbd26c11d	-0.04071151
147	0xbdb200c1	-0.0869155
148	0x3e04b081	0.12957956
149	0x3cc0c0dd	0.023529464
150	0xbcef5b7d	-0.02921843
151	0xbe194912	-0.1496928
152	0xbdf36073	-0.118836306
153	0xbdf3b57f	-0.11899852
154	0x3db6d181	0.089266784
155	0x3d91dccf	0.07122194
156	0x3e1b34d7	0.15156876
157	0x3d5523ca	0.052036084
158	0xbc1d0760	-0.009584278
159	0xbdcfb867	-0.10142594
160	0x3dae9e70	0.08526313
161	0x3d5f14f3	0.054463338
162	0xbd598222	-0.05310262
163	0x3cb3fbe6	0.0219707
164	0xbd076a93	-0.03306062
165	0xbd449634	-0.047994807
166	0x3dee1ebf	0.11626958
167	0xbd8b9b9a	-0.06816788
168	0x3d41b86f	0.04729503
169	0x3d145d25	0.036221642
170	0xbe16ca9e	-0.1472573
171	0x3e0b1a52	0.13584259
172	0xbe056846	-0.13028058
173	0x3cdc1587	0.026865734
174	0x3d635f1a	0.055510618
175	0x3d8b5dbe	0.06804989
176	0xbe52c1b1	-0.205817
177	0xbd15a0cc	-0.0365303
178	0xbdba2d6a	-0.09090693
179	0xbcc90775	-0.024539689
180	0x3dbaaf26	0.09115438
181	0xbdce9764	-0.10087469
182	0x3df31dc1	0.118709095
183	0x3d56bfbf	0.052428957
184	0xbdd7b253	-0.105320595
185	0x3d1d69a5	0.03843083
186	0xbcc77a31	-0.024350258
187	0xbe124a6c	-0.14286202
188	0xbd5a7f8e	-0.053344302
189	0xbc7d45e2	-0.015458556
190	0xbdd85df3	-0.105647944
191	0x3e0dd11e	0.13849303
192	0xbcfb37b4	-0.03066621
193	0x3cb5acbe	0.022177096
194	0xbd8ede30	-0.06975973
195	0x3bba3654	0.005682746
196	0x3d1d214d	0.038361836
197	0xbdb68c99	-0.089135356
198	0xbdacc0cc	-0.084352106
199	0xbc508b88	-0.012728579
200	0xbe4fc391	-0.20289446
201	0xbd257c9b	-0.040402036
202	0x3bab63b4	0.0052303914
203	0xbdcefb05	-0.10106472
204	0x3de301c4	0.11084321
205	0xbc8f3a81	-0.017483952
206	0x3d10b0aa	0.03532473
207	0x3b616648	0.003439324
208	0xbcde7ca6	-0.027159046
209	0xbe2636bf	-0.16231821
210	0xbbe7b25a	-0.0070708217
211	0xbe1ec2e9	-0.1550404
212	0x3d8cfdfe	0.06884383
213	0xbd3cc60d	-0.046087313
214	0x3d416c26	0.04722228
215	0xbd2d27b1	-0.04227418
216	0x3e65cf95	0.22442468
217	0x3cab078a	0.020877618
218	0xbdecb3e4	-0.11557749
219	0x3e103a7f	0.14084814
220	0xbdbed53c	-0.09318015
221	0x3d12bf65	0.03582706
222	0xbdffe778	-0.12495321
223	0xbe442a70	-0.19156814
224	0x3db35257	0.087559395
225	0x3d5dc73c	0.054145083
226	0x3d240947	0.04004791
227	0xbe08d6ea	-0.13363233
228	0xbd1048dc	-0.035225734
229	0x3dc4312c	0.09579691
230	0x3dddbe95	0.10827366
231	0xbcb7e8d0	-0.02244988
232	0xbdda288c	-0.10652265
233	0x3d6ff300	0.058581352
234	0xbd73ee68	-0.059553534
235	0xbd402479	-0.046909783
236	0x3d2ddd5a	0.042447425
237	0xbe4d1f3d	-0.20031448
238	0xbdd498e4	-0.10380724
239	0x3b2e6b1c	0.0026614135
240	0x3e24629c	0.16053241
241	0x3bc6d20a	0.006067519
242	0x3da69126	0.081331536
243	0x3cc41cce	0.023939516
244	0xbcf845fd	-0.03030681
245	0xbddaecd6	-0.10689704
246	0xbdbecd6d	-0.093165256
247	0xbd55e53c	-0.052220568
248	0xbe0ab24d	-0.13544579
249	0xbe066d81	-0.1312771
250	0xbd651f37	-0.055937972
251	0xbd11ece5	-0.03562631
252	0xbcf0d1ba	-0.02939688
253	0x3d8de349	0.06928117
254	0x3d861468	0.06546861
255	0x3de714a1	0.112832315

fc.2.0.bias f4 [10]
0	0xbe073b6a	-0.13206258
1	0xbd687116	-0.056748472
2	0xb9027e2a	-0.00012444766
3	0x3d724caf	0.059155162
4	0x3d364127	0.044495728
5	0x3d072633	0.032995414
6	0x3cc430e5	0.023949096
7	0xbd1d72b7	-0.03843948
8	0x3da92042	0.08258106
9	0x3ce25a87	0.027631057
