Code/checkpoints/cifar10-epoch=01-val_loss=1.49.ckpt (torch, 984128 bytes, 36 tensors)

conv.0.0.weight f4 [8, 3, 3, 3]
0	0x3dcbdaf1	0.09953869
1	0xbd520ef1	-0.05128378
2	0xbe1d8bd9	-0.15385379
3	0xbe123d56	-0.1428121
4	0xbe0e6049	-0.13903917
5	0x3ccf8e8e	0.02533653
6	0x3e139a60	0.14414358
7	0xbe3ccdca	-0.18437877
8	0xbd0ac9aa	-0.033883728
9	0xbd77be5a	-0.060484268
10	0x3e0f68c7	0.14004813
11	0x3b911aa2	0.0044282237
12	0x3e20017a	0.15625563
13	0x3d2a95e0	0.04164684
14	0x3df186f9	0.11793322
15	0xbe12953f	-0.14314745
16	0x3e10aef5	0.14129241
17	0xbdc11208	-0.09427267
18	0xbdbc37fb	-0.09190365
19	0x3e4df367	0.20112382
20	0x3e5a76b7	0.21334349
21	0xbd554a7b	-0.052072983
22	0x3e0dcc43	0.13847451
23	0xbe05e02a	-0.13073793
24	0xbdaaf47f	-0.08347415
25	0x3e580d94	0.2109893
26	0xbbdef94f	-0.0068046222
27	0xbe1fa8ee	-0.15591785
28	0xbdc9a747	-0.09846359
29	0x3da55d82	0.08074476
30	0xbe3ee331	-0.18641354
31	0xbd7975c3	-0.060903322
32	0xbe37b78d	-0.17941113
33	0xbd476af3	-0.04868598
34	0x3e0224b5	0.12709315
35	0xbe2205fb	-0.15822594
36	0xbe14bd03	-0.14525227
37	0xbd6f55ec	-0.05843155
38	0x3e28f47a	0.1649951
39	0x3e0bd3a8	0.13654959
40	0x3e102a75	0.14078696
41	0xbe1a8d38	-0.15092933
42	0x3dc40673	0.095715426
43	0x3dce2fb6	0.10067694
44	0xbcf4e128	-0.02989252
45	0x3e5be12b	0.21472614
46	0x3e1dea28	0.15421355
47	0x3e06c0d1	0.13159491
48	0xbd27e039	-0.04098532
49	0xbba8d4b2	-0.0051523084
50	0x3e7b7697	0.24556957
51	0xbe04affd	-0.12957759
52	0x3cd8d5ff	0.026469229
53	0x3d9a2620	0.07526803
54	0x3d8bab95	0.06819836
55	0x3d899916	0.06718652
56	0x3e0b8ace	0.13627169
57	0x3c087701	0.008329154
58	0x3d9a8811	0.07545484
59	0xbc9da089	-0.019241588
60	0x3e37ade9	0.17937435
61	0x3d84833e	0.06470345
62	0x3e3a8a81	0.18216898
63	0x3dd662c4	0.10468057
64	0x3d901dd2	0.07036938
65	0x3e3b7b38	0.18308723
66	0x3e381c8f	0.17979644
67	0xbe0ca664	-0.13735348
68	0x3e1d7765	0.15377577
69	0xbdef7ba9	-0.11693508
70	0x3be8bad1	0.0071023484
71	0xbddec239	-0.10876889
72	0xbe07ddd6	-0.13268217
73	0x3de02dd5	0.10946242
74	0x3deeba9a	0.11656685
75	0x3be358d1	0.006938078
76	0x3e489a4a	0.19590107
77	0x3e2c8608	0.16848004
78	0xbe118af8	-0.14213169
79	0x3e393fa1	0.18090679
80	0xbccb4930	-0.024815172
81	0x3c622b7a	0.013804311
82	0x3dd4a214	0.103824764
83	0xbe0f2c18	-0.13981664
84	0x3e1a4002	0.1506348
85	0xbd84ef8b	-0.06491002
86	0xbe42a29f	-0.19007348
87	0x3e24afbf	0.16082667
88	0x3db54c62	0.088524595
89	0xbb93f67b	-0.0045154667
90	0xbe1ab41b	-0.15107767
91	0xbe3d0b00	-0.18461227
92	0x3d62d95c	0.05538307
93	0xbe287355	-0.16450246
94	0x3e0d680b	0.1380922
95	0xbac4e38c	-0.0015021428
96	0x3e455019	0.19268836
97	0x3e1119b2	0.14169958
98	0xba44a1f9	-0.00075009424
99	0xbe3835c0	-0.17989254
100	0xbde14986	-0.110003516
101	0xbda46f13	-0.08028998
102	0xbdfdfdf6	-0.12401955
103	0xbe0e2310	-0.13880563
104	0x3dce10f7	0.100618295
105	0x3ce00734	0.027347185
106	0x3e3b30a5	0.18280275
107	0xbb6d2b9f	-0.003618933
108	0x3e5c4920	0.2151227
109	0x3d6c3ca5	0.057675023
110	0xbdd79567	-0.10526543
111	0xbca850be	-0.020546313
112	0xbdf9df9a	-0.12200852
113	0xbdcd9a50	-0.100391984
114	0x3e64f956	0.22360739
115	0xbca45a14	-0.020062484
116	0x3c53e54b	0.012933086
117	0xbcecfead	-0.028930033
118	0x3df488a3	0.11940124
119	0x3e248e52	0.16069916
120	0x3e5e664f	0.21718715
121	0xbdcef876	-0.10105984
122	0x3d4a431d	0.04938041
123	0x3d29f1b5	0.041490275
124	0x3dbb8a86	0.091572806
125	0x3dac6953	0.084185265
126	0xbdd5c22c	-0.10437426
127	0xbd802f2c	-0.06258997
128	0xbd98183d	-0.07426498
129	0x3d2b8da0	0.04188311
130	0x3dc451c2	0.095859066
131	0xbe1853b3	-0.14875679
132	0x3e0f2273	0.13977985
133	0x3d165d6b	0.036710184
134	0x3cbde38b	0.02317979
135	0x3e505cc1	0.20347883
136	0x3e404740	0.1877718
137	0x3d14d761	0.036338214
138	0xbd07904b	-0.033096593
139	0x3c13d342	0.009022536
140	0x3cf4bdfd	0.02987575
141	0x3dc2488d	0.09486494
142	0xbdc4f5d7	-0.09617203
143	0x3ca65237	0.020302875
144	0x3dbc4602	0.091930404
145	0x3e0d4015	0.13793977
146	0xbe24999d	-0.16074224
147	0xbe32d01b	-0.17462198
148	0x3b5d3187	0.0033751444
149	0xbc1a09e6	-0.009401774
150	0xbd342922	-0.04398454
151	0xba05a949	-0.0005098773
152	0xbe544ff2	-0.20733622
153	0x3e1b8c53	0.15190248
154	0x3e399978	0.1812495
155	0xbdfcce35	-0.12344018
156	0x3c784c21	0.015154869
157	0x3de047cf	0.109511964
158	0xbe194818	-0.14968908
159	0xbdbefe19	-0.09325809
160	0x3df01927	0.117235474
161	0xbd71a4ca	-0.058995046
162	0xbe5de654	-0.21669894
163	0x3e3c73ef	0.184036
164	0x3d6e9172	0.058244176
165	0x3cd0d511	0.025492223
166	0x3d90aa17	0.07063692
167	0xbe1f11a8	-0.15534079
168	0x3d9e7532	0.07737197
169	0xbd282453	-0.041050266
170	0xbd3e9d8b	-0.046536963
171	0xbe496a85	-0.1966954
172	0x3daaab4d	0.08333454
173	0x3e3fae23	0.18718772
174	0xbde8da79	-0.11369795
175	0xbd8ffc93	-0.070305966
176	0x3bed0e68	0.0072343834
177	0x3dc2a032	0.09503211
178	0xbe0e5369	-0.13899006
179	0x3e2ceeac	0.16887921
180	0xbe52fc81	-0.20604135
181	0x3e8155fe	0.2526092
182	0x3dcebd48	0.10094696
183	0x3d6dc56d	0.058049608
184	0x3ba4953a	0.005022672
185	0x3bcb5835	0.0062055835
186	0xbd4ad405	-0.049518604
187	0xbdba1a1c	-0.09087011
188	0xbd845022	-0.064605966
189	0x3d52274a	0.051307
190	0x3cc37d07	0.023863329
191	0xbdb185a1	-0.08668066
192	0x3e427458	0.18989694
193	0x3d480e9e	0.048842065
194	0x3e162a70	0.14664626
195	0x3daa4491	0.08313859
196	0x3da0e1ae	0.07855545
197	0xbd8639f1	-0.0655402
198	0x3e3bdde6	0.18346366
199	0xbe00b36a	-0.12568441
200	0xbddbe455	-0.1073691
201	0x3e5fea2f	0.21866678
202	0xbbe2236d	-0.0069011957
203	0xbd5d608c	-0.054047152
204	0xbcd5a68b	-0.02608039
205	0xbcee1d12	-0.029066596
206	0xbe01872d	-0.12649222
207	0x3e463fff	0.1936035
208	0x3d55fdd5	0.052244026
209	0xbe4dcd4d	-0.20097847
210	0xbe06dfb1	-0.13171269
211	0xbd824901	-0.06361581
212	0xbe4bd3fc	-0.19905084
213	0xbc4a769f	-0.012357383
214	0xbd1915a1	-0.037374143
215	0xbd18b791	-0.037284438

conv.0.0.bias f4 [8]
0	0xbd162f10	-0.036665976
1	0xbd8d12ff	-0.06888389
2	0x3dd3558a	0.1031905
3	0x3e2be715	0.1678737
4	0xbcfd90c2	-0.030952815
5	0xbd81c554	-0.063364655
6	0xbd011bb1	-0.03152055
7	0x3dc5687f	0.09639072

conv.1.0.weight f4 [16, 8, 3, 3]
0	0xbc6d716e	-0.014492376
1	0x3da0e73d	0.07856605
2	0x3dc2fb89	0.09520633
3	0xbb186127	-0.0023251267
4	0x3d753926	0.059868954
5	0xbd194f72	-0.03742928
6	0xbd8f8d97	-0.07009428
7	0xbda41c6d	-0.08013234
8	0xbc9a9f40	-0.018874764
9	0x3c85c094	0.01632718
10	0xbda97568	-0.082743466
11	0xbd0e920e	-0.034807257
12	0xbdba296c	-0.09089932
13	0xbcef6cf5	-0.02922676
14	0x3dcab9f3	0.09898748
15	0xbdc9ed8d	-0.09859762
16	0xbcb9580d	-0.022624994
17	0x3d1c34ce	0.038136296
18	0x3caeb920	0.021328509
19	0xbdb57c7b	-0.088616334
20	0xbbe580b0	-0.007003866
21	0xbd0547c7	-0.032539155
22	0xbd451b4a	-0.048121728
23	0xbd82def6	-0.06390183
24	0x3dd6f319	0.10495586
25	0xbd253bfa	-0.0403404
26	0x3d6f352a	0.05840031
27	0xbd3835a5	-0.044973034
28	0xbde2e4c9	-0.110787936
29	0xbddbc0a8	-0.10730106
30	0xbd98ba23	-0.07457378
31	0xbdef707e	-0.11691378
32	0xbd6f05a2	-0.05835498
33	0xbd3cf8df	-0.04613578
34	0x3cf5e987	0.030018581
35	0x3dd6a5ef	0.10480868
36	0xbda70206	-0.08154683
37	0xbcd81fbd	-0.026382321
38	0xbd98bf92	-0.07458414
39	0xbd790ed8	-0.06080517
40	0xbd4cdeac	-0.050017044
41	0xbdc1c3df	-0.094611876
42	0xbdf28e4a	-0.11843546
43	0x3da1398c	0.07872304
44	0xbdc52ed8	-0.09628075
45	0xbc073834	-0.008253146
46	0x3d7193cd	0.058978844
47	0xbdda6916	-0.10664575
48	0x3de1abc0	0.11019087
49	0xbd3c5f8e	-0.045989566
50	0x3d551336	0.052020274
51	0xbd877cdf	-0.06615614
52	0x3db03bb3	0.08605137
53	0xbdcb336c	-0.09921917
54	0xbcc64388	-0.024202123
55	0x3dd1fbff	0.102531426
56	0xbd32281c	-0.043495283
57	0xbd020544	-0.031743303
58	0xbdbafb69	-0.09129984
59	0x3dac20c5	0.08404688
60	0xbdcbc024	-0.09948757
61	0xbd74f2e8	-0.059801966
62	0xbd6ea3ba	-0.05826161
63	0xbdf282a1	-0.11841322
64	0xbddaa789	-0.10676486
65	0xbc9ac2c0	-0.018891692
66	0x3d05679c	0.032569513
67	0x3da758fd	0.0817127
68	0xbd1e6090	-0.038666308
69	0xbd3cf9e6	-0.04613676
70	0x3da8c7b5	0.08241216
71	0xbd6a75cd	-0.05724125
72	0xbd75654f	-0.05991107
73	0xbb6c09d6	-0.0036016605
74	0xbda65c9e	-0.08123134
75	0x3d794bab	0.06086318
76	0x3dd7e8b9	0.10542435
77	0xb92edc68	-0.00016676041
78	0xbd146593	-0.03622968
79	0x3d97e809	0.07417304
80	0xbd76ba49	-0.06023625
81	0x3db05c5b	0.086113654
82	0x3a8920a0	0.0010461994
83	0x3d8e5731	0.06950224
84	0x3db2a991	0.087237485
85	0xbcc2f446	-0.02379812
86	0x3d22444b	0.03961591
87	0xbd3cf2d5	-0.04613002
88	0xbdad95af	-0.084758155
89	0xbc3297c3	-0.010900441
90	0xbc238c05	-0.009982114
91	0x3bddde3d	0.0067708776
92	0xbdb12439	-0.08649487
93	0xbd262f2d	-0.040572334
94	0x3e0aeb23	0.1356626
95	0xbb9bad25	-0.004750865
96	0x3e059e07	0.13048564
97	0xbd84d8a8	-0.064866364
98	0xbd99ea4c	-0.07515392
99	0x3e13a0ad	0.14416762
100	0x3d99e10e	0.07513629
101	0x3e11608a	0.14196983
102	0x3db16a27	0.08662825
103	0xbd99b5de	-0.075053915
104	0x3cee8623	0.029116696
105	0xbde9326a	-0.11386569
106	0xbdd14ee3	-0.102201246
107	0xbd81c15e	-0.0633571
108	0x3d18ac5c	0.03727375
109	0xbd8c4998	-0.068499744
110	0xbcb66273	-0.022263741
111	0x3dd902b1	0.105962165
112	0xbb065e52	-0.0020502997
113	0x3d6bcb1f	0.05756676
114	0xbd1d0bf0	-0.038341463
115	0xbd67f8c0	-0.05663371
116	0xbd97df14	-0.07415596
117	0xbd2ac0cd	-0.041687775
118	0x3ddf0dc7	0.108913
119	0xbd7d084b	-0.061775487
120	0x3d1176f3	0.03551383
121	0x3e35b52b	0.17744891
122	0xbc84596f	-0.016155927
123	0x3e26a70b	0.1627466
124	0xbd03b4d2	-0.032154866
125	0x3dfdd238	0.12393612
126	0xbde604fe	-0.11231421
127	0xbe26ac8d	-0.1627676
128	0xbdf9ff87	-0.12206941
129	0x3e22ef3f	0.15911578
130	0x3d8162a9	0.06317646
131	0xbddb1f2e	-0.106993064
132	0xbcc521da	-0.024063993
133	0xbdadb0ae	-0.084809646
134	0xbd932a7a	-0.07185836
135	0x3c99f29e	0.018792447
136	0xbcfca1ed	-0.030838931
137	0x3dc10277	0.09424298
138	0x3d65ccc8	0.056103498
139	0x3c6f9a3b	0.014624174
140	0x3d167303	0.036730777
141	0xbc6e7cd3	-0.014556128
142	0x3d83670d	0.0641614
143	0xbdac11fd	-0.084018685
144	0x3c06dca9	0.00823132
145	0x3defa8e9	0.11702139
146	0x3ca9ef38	0.020743951
147	0xbaa1cf1c	-0.0012345049
148	0xbd1e360c	-0.038625762
149	0xbd452b5c	-0.048137054
150	0x3e1bd0c1	0.15216352
151	0x3af2bdd3	0.0018519707
152	0xbdb7eea8	-0.08981067
153	0x3dcc846a	0.099861935
154	0xbc139fdd	-0.009010282
155	0x3b81d241	0.003961832
156	0x3dedb669	0.116070576
157	0xbe195f1a	-0.14977685
158	0x3cb5dd95	0.022200385
159	0x3c0e88c6	0.0086996015
160	0xbdfe7972	-0.124255076
161	0x3c66cdd2	0.014087157
162	0x3deac1b7	0.114627294
163	0x3e01ac71	0.12663437
164	0xbde98a55	-0.11403338
165	0xbd91351b	-0.07090207
166	0x3d51de6e	0.051237516
167	0xbda7c264	-0.08191374
168	0x3bbe5c7e	0.005809366
169	0xbd191da1	-0.037381772
170	0xbd25013f	-0.04028439
171	0x3e069b06	0.13145074
172	0x3d0e576e	0.03475135
173	0x3dcfb22d	0.10141406
174	0x3daaec2a	0.08345826
175	0x3defa370	0.11701095
176	0xbc7549d0	-0.014971212
177	0xbd6fabda	-0.0585135
178	0xbcc35bf7	-0.023847563
179	0xbd1d3111	-0.03837687
180	0x3d0515b4	0.0324914
181	0x3de3b5e9	0.11118681
182	0xbdc18cb8	-0.09450668
183	0x3e1e3091	0.15448214
184	0x3d2fcece	0.042921834
185	0xba15d4e6	-0.0005715623
186	0x3e0355a8	0.12825644
187	0x3d947a4e	0.0724989
188	0x3c710a07	0.014711863
189	0x3cfc6789	0.030811088
190	0x3d39c04d	0.045349408
191	0xbbcdcb1b	-0.0062803156
192	0x3d0c882f	0.034309562
193	0xbd626881	-0.055275444
194	0xbdb5d46d	-0.088784076
195	0xbd6a9311	-0.05726916
196	0x3dda071e	0.10645889
197	0xbda32e81	-0.07967854
198	0xbde38d10	-0.1111089
199	0x3bbf7808	0.0058431663
200	0x3d33a691	0.043860022
201	0x3da2a491	0.07941545
202	0x3dff1fe7	0.12457257
203	0x3e1fa630	0.15590739
204	0x3d894704	0.06702998
205	0x3dac4182	0.08410932
206	0x3e08c475	0.13356192
207	0xbdeeddfa	-0.116634324
208	0x3d73bf25	0.05950846
209	0x3dc9a5d7	0.098460846
210	0xbdd4713e	-0.10373162
211	0x3e1816b9	0.14852418
212	0x3e1eb093	0.15497045
213	0xbc2dd6a6	-0.010610258
214	0xbd339c26	-0.043850087
215	0x3e1712e4	0.147533
216	0x3e181ca3	0.14854674
217	0xbd5934f4	-0.053029016
218	0x3c9f449f	0.0194419
219	0x3e09e93f	0.13467883
220	0xbac4b6fa	-0.0015008145
221	0xbd8bf94e	-0.068346605
222	0xbd6dc4f8	-0.058049172
223	0xbd17721e	-0.036974065
224	0xbd8e59cd	-0.06950722
225	0x3d7411ee	0.05958741
226	0x3e33758a	0.17525306
227	0x3d8d4250	0.06897414
228	0x3e25493a	0.16141215
229	0x3e3dd094	0.18536597
230	0x3e4db05f	0.20086811
231	0x3e100c04	0.14067084
232	0x3de60828	0.112320244
233	0x3cad4940	0.021153092
234	0x3d9cf2a6	0.07663469
235	0x3dd071c5	0.1017795
236	0x3df064e0	0.117379904
237	0x3dbeae75	0.09310619
238	0x3dafee04	0.0859032
239	0x3d335ebe	0.043791525
240	0xbe4220d2	-0.18957832
241	0xbdc01435	-0.09378854
242	0xbe198396	-0.14991602
243	0x3dafebb2	0.08589877
244	0x3e20c780	0.15701103
245	0xbc667aa7	-0.014067329
246	0xbd2a1932	-0.041527934
247	0xbda246d1	-0.079236634
248	0xbded543d	-0.11588333
249	0xbb15e6d2	-0.0022873175
250	0xbdb3b4a7	-0.08774691
251	0xbbe3918d	-0.0069448412
252	0xbd3c18fc	-0.045922264
253	0xbc9faa54	-0.019490398
254	0x3dbcf84d	0.09227047
255	0xbd72b849	-0.05925778

conv.1.0.bias f4 [16]
0	0xbd8f135b	-0.06986114
1	0xbc800f86	-0.015632402
2	0xbdd12197	-0.10211485
3	0xbd569d72	-0.052396245
4	0xbdd69259	-0.10477132
5	0x3ded56dd	0.115888335
6	0x3d760011	0.060058657
7	0x3c75bbd1	0.014998392
8	0xbd7665ef	-0.060155805
9	0x3d691ad6	0.05691036
10	0xbcc7407d	-0.024322743
11	0x3ceaf899	0.028682994
12	0xbd45ade5	-0.048261542
13	0x3b523491	0.003207479
14	0x3deb8959	0.11500806
15	0xbdae5b1d	-0.08513472

conv.2.0.weight f4 [32, 16, 3, 3]
0	0xbb608000	-0.0034255981
1	0x3d5e61a2	0.05429233
2	0xbd963546	-0.0733438
3	0xbd8fa594	-0.070140034
4	0x3c8b4a30	0.017003149
5	0x3d7c0f8f	0.061538275
6	0x3cb49ca0	0.02204734
7	0xbb2901a0	-0.0025788322
8	0xbd69019b	-0.056886297
9	0xbd2aebf7	-0.04172894
10	0xbb60b6c5	-0.0034288627
11	0x3d87e773	0.06635942
12	0x3e3357e6	0.17514
13	0x3e0c5693	0.137049
14	0x3beae492	0.007168361
15	0xbd479745	-0.048728246
16	0xbd4ed5ba	-0.050496794
17	0xbd83b582	-0.06431104
18	0xbcd6d5bf	-0.026224969
19	0xbd8fc783	-0.07020476
20	0xbd7aeee0	-0.061262965
21	0xbd13e9d4	-0.036111668
22	0x3b241563	0.0025037162
23	0xbd69d54f	-0.057088193
24	0x3d3f69ca	0.046731748
25	0xbc18d620	-0.009328395
26	0xbc86049d	-0.016359622
27	0xbd843385	-0.06455139
28	0xbd83d7f3	-0.064376734
29	0xbd960008	-0.07324225
30	0x3e3d5676	0.18490013
31	0x3e719a26	0.23593959
32	0x3e15e769	0.14639057
33	0xbca5053b	-0.020144096
34	0x3ca9ad9f	0.020712672
35	0x3d822bfc	0.063560456
36	0x3d907f82	0.0705557
37	0x3cfd3e2f	0.03091344
38	0xbda0bdeb	-0.07848724
39	0x3d26779a	0.040641405
40	0x3dc651d8	0.09683579
41	0x3d9418e6	0.072313115
42	0xbc9ef496	-0.019403737
43	0xbd9c2117	-0.07623499
44	0xbdd0ae55	-0.10189501
45	0xb9b315a0	-0.00034157652
46	0x3d0deb43	0.03464819
47	0x3c6fc843	0.014635148
48	0x3dd672c3	0.10471108
49	0x3ddfab8a	0.1092139
50	0x3d0f5353	0.034991574
51	0x3d37ec2b	0.04490296
52	0xbb364bac	-0.00278161
53	0x3dc0a909	0.09407241
54	0x3bbb60fa	0.0057183476
55	0xbde77ee1	-0.11303497
56	0xbd4427c8	-0.0478895
57	0xbb631340	-0.0034648925
58	0x3ce95416	0.028482478
59	0x3d9b09d0	0.07570231
60	0xbd57d17f	-0.052690025
61	0xbda61b2c	-0.081106514
62	0x3d255755	0.04036649
63	0xbb25844d	-0.002525586
64	0xbe0a5468	-0.13508761
65	0xbd0e5ce4	-0.034756556
66	0x3d45aa4d	0.048258115
67	0x3e658fa7	0.2241808
68	0x3e0963ee	0.13417026
69	0x3ddcae7e	0.10775469
70	0x3d90d813	0.07072463
71	0x3e09a3be	0.13441369
72	0x3d9d939b	0.07694169
73	0x3cb9b4d3	0.022669232
74	0xbc8b0800	-0.016971588
75	0xbca74969	-0.020420747
76	0x3d017166	0.031602286
77	0x3d92d998	0.07170409
78	0xbd10e1dd	-0.03537165
79	0xbdc580ab	-0.09643682
80	0xbd8c9a46	-0.06865363
81	0x3d9588a7	0.07301455
82	0xbd1dad45	-0.03849532
83	0x3d5b9447	0.053608205
84	0x3cef5a3e	0.029217836
85	0xbd9c717b	-0.07638832
86	0xbd195019	-0.037429903
87	0xbd583d69	-0.05279294
88	0xbdb72e28	-0.089443505
89	0xbda1ea76	-0.07906048
90	0xbdbbd3ac	-0.091712326
91	0xbca1ee50	-0.019766957
92	0x3cb71e1a	0.02235322
93	0x3b6bacff	0.0035961268
94	0x3cb10705	0.021609792
95	0x3d7bc243	0.06146456
96	0xbd339ec5	-0.043852586
97	0xbd3507ce	-0.044196896
98	0x3b196225	0.0023404446
99	0x3c3782c5	0.0112006115
100	0x3d6f9e18	0.05850038
101	0xbd3e7af4	-0.046503976
102	0x3dbb09d3	0.09132733
103	0xbc88cae3	-0.016698306
104	0x3ccf5c9b	0.025312712
105	0x3c63f9e8	0.013914563
106	0x3d3b12f3	0.04567237
107	0xbd435ad8	-0.047694057
108	0xbcdd35ae	-0.027003136
109	0x3cd40b87	0.025884403
110	0xbd5ba88c	-0.053627536
111	0xb8428638	-4.6378205e-05
112	0x3cc494cd	0.023996735
113	0x3d80babc	0.06285617
114	0x3d164960	0.03669107
115	0xbc3e2df0	-0.011607632
116	0x3c2a0359	0.010376775
117	0xbd94d71f	-0.072675936
118	0xbcf5b8e5	-0.029995391
119	0xbce38b23	-0.027776306
120	0x3d81d3ef	0.06339251
121	0xbd354664	-0.044256583
122	0xbd8e87dd	-0.069595076
123	0xbe04f3c7	-0.12983619
124	0xbe0960e9	-0.13415875
125	0xbdd98dac	-0.10622725
126	0xbcf3a174	-0.029740073
127	0xbd414b27	-0.04719081
128	0x3da16887	0.07881265
129	0xbd9631eb	-0.0733374
130	0xbd875293	-0.06607547
131	0xbdb8f89e	-0.09031795
132	0xba40be6f	-0.00073525956
133	0xbcce64a1	-0.025194468
134	0xbda17d66	-0.07885246
135	0x3d9f3635	0.07774011
136	0xbd9c35ab	-0.07627424
137	0xbc942e0e	-0.018088367
138	0xbda14396	-0.07874219
139	0x3da0932a	0.07840569
140	0x3d8286f1	0.06373394
141	0xbd8e09b2	-0.06935443
142	0xbc4485ec	-0.01199482
143	0xbcc53864	-0.02407474
144	0xbc80a36c	-0.015702926
145	0xbd556650	-0.052099526
146	0xbb8135f8	-0.003943201
147	0xbd8ed722	-0.06974627
148	0x3d44f9ca	0.04808978
149	0xbd88c937	-0.06679004
150	0x3ca6829c	0.020325951
151	0x3cbc2844	0.022968419
152	0xbc3ac7f8	-0.011400215
153	0x3dbe4f56	0.09292476
154	0xbcabc8ec	-0.02096983
155	0x3c881634	0.01661215
156	0x3d11efaa	0.035628952
157	0xbdc41da3	-0.09575965
158	0x3d0b1a48	0.03396061
159	0xbdad661e	-0.08466743
160	0xbd0242de	-0.03180205
161	0xbc7367e6	-0.014856314
162	0xbbd4fb6c	-0.0064996984
163	0xbde7311b	-0.11288663
164	0x3d5a8346	0.05334785
165	0xbdd18a14	-0.102314144
166	0xbdbdf701	-0.09275628
167	0xbd020489	-0.031742606
168	0xbcf48e96	-0.029853147
169	0xbe2198cd	-0.15780945
170	0x3ca9ce76	0.020728331
171	0x3da34933	0.07972946
172	0x3c6025cb	0.013680886
173	0x3d83e814	0.0644075
174	0xbbb06e6a	-0.005384256
175	0xbd9ba3e5	-0.0759962
176	0x3d299a07	0.041406658
177	0x3d1e9580	0.038716793
178	0xbd461779	-0.04836223
179	0xbc13ef40	-0.00902921
180	0x3cd183a4	0.025575466
181	0xbc8b2422	-0.016985003
182	0xbd34bf62	-0.04412783
183	0x3d8ec2e1	0.06970764
184	0xbd21baef	-0.039484914
185	0xbd5bdea3	-0.05367912
186	0x3b9008be	0.0043955734
187	0x3ccab30d	0.024743581
188	0x3d8f08a1	0.06984068
189	0x3d3d8f5f	0.046279307
190	0x3dbbdd02	0.09173013
191	0x3de3c01a	0.11120625
192	0x3d06fc44	0.032955423
193	0xbcfea608	-0.03108503
194	0x3c0cdc60	0.008597463
195	0xbdae4d3d	-0.08510826
196	0xbc907f30	-0.017638773
197	0xbc0ec98b	-0.008715044
198	0xbc9217c8	-0.017833605
199	0xb9bd933b	-0.00036158584
200	0xbc9cb2b1	-0.019128175
201	0xbe023347	-0.12714873
202	0xbdee8634	-0.11646691
203	0xbdb9bd1c	-0.09069273
204	0x3cff0d82	0.03113437
205	0xbde445f7	-0.11146157
206	0xbde0ef9b	-0.10983201
207	0x3da05524	0.07828739
208	0x3d11bb67	0.03557911
209	0x3c3e5821	0.011617691
210	0xbc1fdf1d	-0.009757784
211	0xbd006125	-0.031342644
212	0x3d132b16	0.03592976
213	0x3d0d0a1a	0.03443346
214	0xbd910de4	-0.070827276
215	0xbc2f96de	-0.010717122
216	0xbde7079d	-0.11280749
217	0xbd2075b3	-0.039174747
218	0x3cf440cf	0.02981606
219	0xbe125161	-0.14288856
220	0xbe2ed51f	-0.17073487
221	0xbda8d1d1	-0.08243144
222	0xbe0c60c7	-0.13708793
223	0xbd9e6803	-0.077346824
224	0xbde1fc94	-0.110345036
225	0x3d155f52	0.036467858
226	0xbc92ff26	-0.01794393
227	0x3dac9732	0.08427276
228	0x3dd7a515	0.10529534
229	0xbc431c48	-0.011908598
230	0xbd419192	-0.047257967
231	0x3cb5eb26	0.022206854
232	0x3d53d79b	0.05171929
233	0x3d6eb031	0.058273498
234	0x3df2921a	0.11844273
235	0xbcbaad05	-0.02278758
236	0xbbf61c7a	-0.007510719
237	0x3d8f8423	0.07007625
238	0x3c64d10a	0.013965854
239	0x3d158563	0.03650416
240	0x3da8bd36	0.08239214
241	0xbd181021	-0.037124757
242	0x3d9a0643	0.075207256
243	0x3dd4334a	0.10361345
244	0xbd56be81	-0.052427772
245	0x3cb8ab9a	0.022542764
246	0x3dec439b	0.11536332
247	0x3d0eee53	0.034895252
248	0xbc9ca4da	-0.019121576
249	0x3de42a42	0.111408725
250	0x3b8a583d	0.0042219446
251	0xbccf20d5	-0.02528421
252	0x3d6a459e	0.0571953
253	0xbcb13ec1	-0.021636369
254	0xbd1211ed	-0.035661627
255	0xbc701fd2	-0.014656024

conv.2.0.bias f4 [32]
0	0x3c7d870c	0.015474092
1	0xbcb9f9c1	-0.0227021
2	0xbcde913c	-0.027168863
3	0x3dd72084	0.10504249
4	0x3deb485a	0.11488409
5	0x3c87f8d8	0.01659815
6	0xbcace304	-0.021104343
7	0xbcf5cdae	-0.030005302
8	0x3ace44ad	0.001573702
9	0xbd901e67	-0.07037049
10	0xbda87534	-0.0822548
11	0xbd1383cd	-0.036014367
12	0xbcc861ee	-0.024460759
13	0xbd28a58b	-0.0411735
14	0xbd5b84ee	-0.05359357
15	0x3d2bffbb	0.04199193
16	0xbd337c69	-0.04381982
17	0xbd4b5cb5	-0.04964896
18	0xbe01bf50	-0.12670636
19	0x3dcb3da8	0.09923869
20	0xbdef816f	-0.116946094
21	0xbe034dc6	-0.12822637
22	0x3c01b72a	0.007917205
23	0xbdaa5396	-0.08316724
24	0x3d4c6559	0.04990134
25	0x3dc8b7d5	0.09800688
26	0x3d96dd27	0.073664
27	0x3cbd5464	0.02311153
28	0x3e163c23	0.14671378
29	0xbdb5d0c4	-0.088777095
30	0xbd8ca63e	-0.06867646
31	0xbdc15323	-0.09439685

fc.0.0.weight f4 [128, 512]
0	0xbd01e1b0	-0.031709373
1	0x3d4e9e32	0.050443836
2	0x3d234a5f	0.039865848
3	0xbd2c1322	-0.042010434
4	0xbb19c0d8	-0.002346089
5	0x3d8517b4	0.06498662
6	0x3d9a69ec	0.07539734
7	0x3c7adfcd	0.015312147
8	0x3d7bc883	0.06147052
9	0x3cb3af3a	0.02193414
10	0xbb898d80	-0.0041977763
11	0xbbac5abe	-0.0052598407
12	0x3cabc51d	0.020968014
13	0x3b2c2af9	0.002627073
14	0x3b671d81	0.0035265388
15	0x3b4b47d1	0.0031018148
16	0xbc9fa5f3	-0.01948831
17	0x3c4bb470	0.012433156
18	0xbcf583f5	-0.029970149
19	0xbb55b9be	-0.0032611932
20	0x3cde4d31	0.027136417
21	0x3d5f164a	0.054464616
22	0xbc5bce60	-0.013415903
23	0x3c416ea2	0.011806162
24	0x3dbe091f	0.092790835
25	0x3cb45073	0.022011017
26	0x3db41727	0.087934785
27	0x3d2102b9	0.039309237
28	0x3dbf2def	0.09334933
29	0xbc0bf877	-0.008543125
30	0x3cf21101	0.029549124
31	0x3b8406e8	0.0040291436
32	0xbd06c8ee	-0.032906465
33	0xbc40aa71	-0.011759386
34	0xbd6ca66f	-0.05777591
35	0x3d5c3491	0.05376107
36	0xbd97318b	-0.073824964
37	0xbe03f077	-0.12884699
38	0xbe12a700	-0.14321518
39	0xbc1d341e	-0.009594945
40	0xbd6b04e7	-0.057377722
41	0xbd8491a5	-0.06473092
42	0xbd94798d	-0.072497465
43	0x3c9b929a	0.018990804
44	0x3c923518	0.017847583
45	0xbcfdb792	-0.030971322
46	0xbd3105fb	-0.043218594
47	0xbb8f368a	-0.0043705152
48	0x3d267be3	0.04064549
49	0x3bee1fb3	0.0072669624
50	0xbc68e9f1	-0.014215932
51	0xbc82cb51	-0.01596609
52	0xbd7494cb	-0.059712213
53	0xbe16b57b	-0.14717667
54	0xbdba20a8	-0.0908826
55	0x3c719a5e	0.014746277
56	0xbcb2f5e8	-0.021845773
57	0xbc593b2d	-0.0132587375
58	0xbd904363	-0.07044103
59	0x3d0713c7	0.032977846
60	0xbd3acefc	-0.045607552
61	0xbc8f92d5	-0.01752607
62	0xbd65b1fe	-0.05607795
63	0x3ca69922	0.020336691
64	0x3cdda1ae	0.027054634
65	0xbd651af7	-0.05593392
66	0xbd9ddda7	-0.077082925
67	0xbcdd1cef	-0.026991336
68	0x3d890b1d	0.06691573
69	0xbd295318	-0.04133901
70	0xbba92a43	-0.0051625087
71	0x3cdccd04	0.026953228
72	0x3ca281e0	0.01983732
73	0x3c4d12be	0.0125166755
74	0x3b105035	0.0022020463
75	0xbd0ae717	-0.03391179
76	0x3cf80d36	0.030279737
77	0xbccbd447	-0.024881495
78	0xbd9bb123	-0.076021455
79	0x3d35cad1	0.044382874
80	0x3c89ca10	0.016819984
81	0x3cc5e08a	0.02415492
82	0xbd15573e	-0.036460154
83	0xbcfa6f31	-0.030570598
84	0x3d6e14bc	0.058125243
85	0x3e49a406	0.19691476
86	0x3e56fd4c	0.20995063
87	0x3e5ad2c1	0.21369459
88	0x3df04644	0.11732152
89	0x3d87c1d1	0.066287644
90	0x3e3ceb18	0.18449056
91	0x3e9fcf29	0.31212738
92	0x3e1614e7	0.14656411
93	0x3e0fb3cc	0.14033431
94	0x3e5af597	0.21382748
95	0x3e8a6e8d	0.2703747
96	0xbd03fe2d	-0.032224823
97	0xbc8315b4	-0.01600156
98	0xbd6a8def	-0.057264265
99	0x3ce54e22	0.027991358
100	0x3a51c536	0.0008002104
101	0xbd129ff2	-0.035797067
102	0xbcb930aa	-0.022606213
103	0x3d4ffa77	0.05077597
104	0xbd46f8ac	-0.048576996
105	0xbd4591a1	-0.048234586
106	0xbc7c728a	-0.015408168
107	0x3d015ea8	0.03158441
108	0xbd506f54	-0.05088742
109	0xbd90e976	-0.07075779
110	0xbd662e20	-0.056196332
111	0x3d662086	0.05618336
112	0x3c497563	0.012296054
113	0x3b1c55d6	0.0023854873
114	0xbca39411	-0.019968065
115	0x3b5adf96	0.0033397428
116	0x3d85e029	0.06536896
117	0xbb49d650	-0.0030797906
118	0xbd36b3f1	-0.0446052
119	0xbca8630d	-0.020555044
120	0x3d175415	0.03694542
121	0xbc6b982a	-0.01437954
122	0xbd06631f	-0.032809373
123	0xbc5f0f36	-0.013614466
124	0x3d2bdbf7	0.04195782
125	0x3d703e0f	0.058652934
126	0x3c96ee0d	0.018424058
127	0x3d9f5036	0.07778971
128	0xbc0c8e47	-0.008578843
129	0xbc27dfce	-0.01024623
130	0xbb7677d4	-0.0037608044
131	0xbcac48a7	-0.021030737
132	0x3cb07cb8	0.021543846
133	0xbac88a3c	-0.0015299986
134	0x3c88a9a3	0.016682452
135	0x3ba57dd5	0.0050504007
136	0x3d3f7bb9	0.04674885
137	0x3da454af	0.080239646
138	0x3a921eec	0.0011148131
139	0x3dd7d8fe	0.10539435
140	0x3d7a20b2	0.061066337
141	0x3db0be0c	0.086299986
142	0x3ca6cd99	0.020361708
143	0x3d974e50	0.07387984
144	0xbcb4caf0	-0.022069424
145	0xbb19604d	-0.0023403347
146	0x3cef87ad	0.0292395
147	0x3c2bbf98	0.010482691
148	0xbcfa8a79	-0.030583607
149	0x3d317b1f	0.043330308
150	0x3c039214	0.008030433
151	0xb8cd9a00	-9.8038465e-05
152	0x3d2a50c2	0.041580923
153	0xbd0fa152	-0.035065956
154	0x3c869bf6	0.01643179
155	0xbd17a3e6	-0.03702154
156	0xbb69dd16	-0.0035684756
157	0xbd029ad5	-0.03188594
158	0xbbe53380	-0.0069946647
159	0xbcb892f6	-0.022531014
160	0x3c890bb8	0.01672922
161	0xbbb48232	-0.0055086846
162	0xbce8e3e7	-0.028428985
163	0x3d86de72	0.06585397
164	0xbdbc364b	-0.09190043
165	0xbd3a0389	-0.045413528
166	0xbd8ae70b	-0.06782349
167	0x3d0f2583	0.034947883
168	0xbdfcc037	-0.123413496
169	0xbe6f31db	-0.23358862
170	0xbe3e8f64	-0.18609387
171	0xbcad07ce	-0.021121886
172	0xbdd0e216	-0.101993725
173	0xbd81b32d	-0.06333003
174	0xbe2625c3	-0.16225342
175	0x3d512eac	0.0510699
176	0x3d2daaab	0.04239909
177	0x3c657ebf	0.014007269
178	0xbced8926	-0.028996062
179	0x3cc059ab	0.023480257
180	0x3d8425ee	0.06452547
181	0x3d043244	0.0322745
182	0xbcbb8d18	-0.022894427
183	0xbc357e9f	-0.011077552
184	0x3be5b2c7	0.0070098373
185	0x3c7ab286	0.015301352
186	0x3d0d3ad7	0.034479942
187	0xbca18016	-0.019714396
188	0x3d903dea	0.07043059
189	0x3cc96608	0.024584785
190	0xbc07674e	-0.008264376
191	0x3acb1475	0.0015493768
192	0xbd170c52	-0.036876984
193	0xbdb6cf57	-0.08926266
194	0x3cc3fa16	0.023922961
195	0x3cfc87d3	0.030826485
196	0x3d93193b	0.07182547
197	0x3d8df059	0.06930608
198	0x3d8e4dcb	0.069484316
199	0x3d25ffe1	0.04052723
200	0x3e080cf8	0.13286197
201	0x3dd63d2b	0.104608856
202	0x3d9ba9cd	0.07600746
203	0x3ddcac2d	0.107750274
204	0xbb469f42	-0.0030307327
205	0x3dc0bb73	0.09410753
206	0x3daad1d3	0.08340802
207	0x3d9203d7	0.07129639
208	0x3d19aadf	0.03751647
209	0xbd2349af	-0.039865192
210	0xbcaf1c85	-0.021375904
211	0x3c999753	0.018748915
212	0xbcf9ffc7	-0.030517472
213	0x3c80d218	0.01572518
214	0x3c0ff875	0.008787264
215	0x3cc4e1d3	0.024033463
216	0xbce53d65	-0.027983377
217	0x3c8e9516	0.017405074
218	0x3c8826de	0.016620096
219	0xbc800606	-0.015627872
220	0x3c658168	0.014007904
221	0xbc46b0b9	-0.012127095
222	0x3b172fd7	0.0023069286
223	0x3cc69d9b	0.024245074
224	0xbb990bbd	-0.0046705888
225	0xb91db444	-0.00015039841
226	0xbd5957fe	-0.05306243
227	0x3b292c0e	0.0025813612
228	0xbb05ccd1	-0.002041627
229	0xbc42d203	-0.011890891
230	0xbd0b9045	-0.034073133
231	0x3b0d3426	0.0021545975
232	0xbda398db	-0.07988139
233	0x3cd6ec32	0.026235674
234	0x3d1add30	0.037808597
235	0x3d6d3509	0.057911906
236	0xbd04c518	-0.032414526
237	0x3c49d590	0.012318984
238	0xbd1e279c	-0.038611993
239	0x3c8e3e1f	0.017363606
240	0xbc849254	-0.016183056
241	0xbc7921df	-0.015205829
242	0x3cedf058	0.029045269
243	0xbd9f0c26	-0.07765989
244	0x3bdfa19d	0.0068246857
245	0xbcd11cd9	-0.025526451
246	0x3cc06e7c	0.023490183
247	0xbd7afd63	-0.061276805
248	0x3c381086	0.011234408
249	0x3d8e4c53	0.069481514
250	0x3d56f35d	0.052478183
251	0xbd0097a1	-0.031394605
252	0x3d7e7fce	0.062133603
253	0x3d9afabf	0.07567357
254	0x3c5bc5cc	0.013413858
255	0xbd8f64f6	-0.07001679

fc.0.0.bias f4 [128]
0	0x3cbf8352	0.023378048
1	0x3cea45f7	0.028597815
2	0xbca382ef	-0.019959895
3	0x3dab7f4e	0.08373891
4	0x3d197854	0.03746827
5	0xbd35e302	-0.044405945
6	0xbd36ad80	-0.044599056
7	0xbd04dd8b	-0.032437842
8	0x3d2298f3	0.039696645
9	0x3cc56068	0.024093822
10	0xbd377052	-0.04478485
11	0xbcfb9312	-0.030709777
12	0xbcd71a25	-0.026257584
13	0x3dced28c	0.100987524
14	0x3d1151a8	0.035478264
15	0x3bb39442	0.00548032
16	0x3d068b1b	0.032847505
17	0xbcf6b7aa	-0.030116875
18	0x3c5349d0	0.012896016
19	0xbd5562fb	-0.05209635
20	0x3c8290fb	0.015938273
21	0x3cef93b1	0.02924523
22	0x3cf5ed99	0.030020522
23	0xbb3da4a5	-0.0028937247
24	0x3bc7c0e1	0.006095991
25	0x3c621d89	0.013800987
26	0xbcf1f7cb	-0.029537102
27	0xbb7b3766	-0.003833258
28	0xbc857d2f	-0.016295044
29	0x3cff1fa3	0.031143015
30	0x3c206db6	0.009791782
31	0xbc0681a3	-0.008209619
32	0x3ca34a95	0.019933024
33	0xbd579c63	-0.052639376
34	0xbd1e8996	-0.03870543
35	0xbd298911	-0.041390482
36	0x3d3b7358	0.045764297
37	0xbd31161c	-0.043233976
38	0xbd290fc9	-0.04127482
39	0xbadf342f	-0.0017029102
40	0x3da6a5b0	0.08137071
41	0x3dce8d29	0.10085518
42	0x3cf95261	0.03043479
43	0x3b64d5b1	0.003491741
44	0x3d3993a0	0.0453068
45	0x3ca09dab	0.019606432
46	0x3da75f3d	0.08172462
47	0xbb30b5e8	-0.0026963893
48	0x3d833d98	0.064082325
49	0x3cb75eb0	0.022384018
50	0x3d953380	0.072852135
51	0xbc8bca7f	-0.017064331
52	0xbd24430e	-0.04010301
53	0x3c911c2a	0.017713625
54	0x3d8abd7f	0.06774425
55	0x3cb1f429	0.02172287
56	0x3c8cb655	0.017176786
57	0xbcf4512e	-0.029823866
58	0xbb5d306b	-0.0033750783
59	0x3d732237	0.0593588
60	0x3c33e77a	0.010980481
61	0xbd3d9309	-0.0462828
62	0x3c16de6c	0.009208303
63	0xbce47afc	-0.027890675
64	0x3dc057b0	0.09391725
65	0xbabbc412	-0.0014325401
66	0xbd020a34	-0.03174801
67	0xbd3cf6d0	-0.046133816
68	0x3d01cc29	0.031688843
69	0x3de16f2d	0.11007533
70	0xbd416f4b	-0.047225278
71	0xbd019ebf	-0.031645533
72	0x3c90e596	0.0176876
73	0x3cda1a17	0.026623769
74	0x3c899725	0.016795704
75	0x3d0478bd	0.032341707
76	0xbd88a5cd	-0.06672249
77	0x3cd576f7	0.026057703
78	0x3d2079f4	0.039178804
79	0xbd4dae9f	-0.05021536
80	0x3ca92763	0.020648664
81	0x3c6d4396	0.014481446
82	0xbd5242ab	-0.05133311
83	0x3da742da	0.08167048
84	0xbcc55531	-0.024088474
85	0x3a0608d4	0.000511301
86	0x3be0a080	0.0068550706
87	0x3d823a01	0.063587196
88	0x3d9cd0ea	0.07657035
89	0x3d88e44b	0.066841684
90	0xbd794aa9	-0.060862217
91	0x3ad81b54	0.0016487637
92	0x3cb2250c	0.021746181
93	0x3babbbaa	0.005240877
94	0x3d8325f8	0.06403726
95	0xbb655be0	-0.0034997389
96	0x3d831322	0.06400134
97	0x3d9388d7	0.072038345
98	0xba685a86	-0.00088635867
99	0xbbd6dca5	-0.0065570646
100	0xbce79e98	-0.028273866
101	0x3ccd531b	0.025064042
102	0x3c41360c	0.011792671
103	0xbd3b7f8e	-0.045775943
104	0x3ddc2f3c	0.10751197
105	0x3c2b16aa	0.010442415
106	0xbd4c34e1	-0.049855117
107	0xbbe068e5	-0.006848442
108	0x3db561e0	0.08856559
109	0xbbe13f09	-0.0068739695
110	0x3daed46f	0.08536612
111	0xbc3d9138	-0.011570267
112	0x3789519d	1.6369677e-05
113	0x3c48fd81	0.012267471
114	0x3d1810e7	0.037125494
115	0x3d79107f	0.060806748
116	0xbcd49785	-0.025951156
117	0x3d1c851d	0.038212884
118	0x3dbb2967	0.09138756
119	0x3d9e525b	0.07730552
120	0xbd08c608	-0.033391982
121	0x3bb5d828	0.0055494495
122	0x3cc11753	0.023570692
123	0xbb3a4c92	-0.0028426987
124	0x3d2f4af4	0.04279609
125	0xbc8d03d8	-0.017213747
126	0x3cb79132	0.022408102
127	0x3d9752f4	0.07388869

fc.1.0.weight f4 [64, 128]
0	0xbdb50611	-0.08839048
1	0x3da548b6	0.08070509
2	0x3d64b54b	0.055836957
3	0x3dc45444	0.09586385
4	0x3d8bf167	0.06833153
5	0xbd7cb2bc	-0.061693892
6	0x3cd0363b	0.025416484
7	0xbdd677c1	-0.1047206
8	0x3df31aba	0.11870332
9	0x3ceb4a12	0.028721843
10	0xbd8833cb	-0.06650504
11	0x3d5aac17	0.053386774
12	0xbdacaa8c	-0.08430967
13	0x3e0b552c	0.13606709
14	0x3d7e3bed	0.06206887
15	0xbca34484	-0.019930132
16	0x3d769d50	0.06020862
17	0x3bb1e1d0	0.0054285303
18	0x3e34cab4	0.1765545
19	0x3d1db4b2	0.038502403
20	0xbdbfc285	-0.093632735
21	0x3c0d9256	0.008640846
22	0xbdf4f2e1	-0.11960388
23	0xbd9dc356	-0.07703273
24	0xbc8e2057	-0.017349405
25	0xbd7173e0	-0.058948398
26	0xbd0fe782	-0.035132892
27	0x3d41eb31	0.047343437
28	0xbda685d0	-0.081309915
29	0x3d94d31b	0.07266828
30	0x3dce6009	0.10076911
31	0x3d6b51a6	0.057450913
32	0xbda94c19	-0.082664676
33	0xbd6c193f	-0.057641264
34	0x3d6a7d88	0.057248622
35	0x3c59bfae	0.013290329
36	0x3dd68728	0.10474998
37	0x3d4df4a6	0.050282143
38	0x3d4a4406	0.04938128
39	0xbd91ada1	-0.07113195
40	0x3dbbddd0	0.09173167
41	0xbc3aa4bf	-0.011391818
42	0x3ddef223	0.10886028
43	0x3c6fea28	0.01464323
44	0xbd61d044	-0.05513026
45	0x3b9b4b08	0.004739169
46	0xbda43181	-0.080172546
47	0x3d6b9702	0.05751706
48	0x3d1d871b	0.038458925
49	0xbda3f3cb	-0.08005484
50	0x3d4f59a4	0.050622597
51	0x3caed365	0.021341035
52	0xbd96f11e	-0.07370208
53	0x3c671aa6	0.014105475
54	0x3d9952c6	0.07486491
55	0xbe0937c9	-0.13400187
56	0xbc89413e	-0.016754743
57	0xbd93607e	-0.07196139
58	0xbd4b7aa9	-0.049677525
59	0xbca8e35c	-0.020616226
60	0x3c131f2f	0.008979603
61	0xbd5e54a0	-0.054279923
62	0x3cb1c8e1	0.021702232
63	0xbd0e42dd	-0.034731735
64	0x3dbda5a5	0.0926011
65	0xbd9dca40	-0.07704592
66	0x3d31e7f2	0.04343409
67	0x3d603e1f	0.054746743
68	0x3d15b191	0.036546294
69	0x3ddc8793	0.10768046
70	0xbd34ea88	-0.04416898
71	0xbd512cad	-0.051067997
72	0x3e1a1790	0.15048051
73	0xbd885b66	-0.06658058
74	0x3d81b7e2	0.06333901
75	0x3cce4f18	0.0251842
76	0x3d61d4f3	0.055134725
77	0x3cc3d9a4	0.02390749
78	0xbcb1dc63	-0.021711534
79	0x3da4d76c	0.08048901
80	0x3df99c9e	0.121880755
81	0x3dc5170a	0.09623535
82	0xbd9d6ce7	-0.07686787
83	0x3cd6c6a4	0.026217766
84	0xbd7b5a4c	-0.06136541
85	0x3c378d38	0.011203103
86	0xbd99acae	-0.07503639
87	0x3e3297d4	0.1744073
88	0xbc25bdc3	-0.0101160435
89	0x3e25b155	0.16180928
90	0x3ce2cd92	0.027685914
91	0xbd7fa12d	-0.06240957
92	0x3d5ae79d	0.05344354
93	0x3dab229a	0.08356209
94	0x3c956d66	0.018240642
95	0xbcdf3ecb	-0.027251622
96	0xbb5b45a1	-0.003345825
97	0x3cf0e4cd	0.029405976
98	0xbbb29f32	-0.0054511065
99	0xbdeec78f	-0.116591565
100	0xbd5efe6b	-0.05444185
101	0xbcbaeacd	-0.02281704
102	0xbadff4ce	-0.0017086507
103	0x3c8ad761	0.016948404
104	0x3ddb38c4	0.107041866
105	0x3d5ed18b	0.054399054
106	0xbd1b1f9c	-0.037871942
107	0xbc39554f	-0.011311843
108	0x3da3abf7	0.07991784
109	0x3d9c936a	0.076453045
110	0x3cc7d5e7	0.024393989
111	0xbe05a21f	-0.13050126
112	0xbd6150f8	-0.05500886
113	0xbddcc882	-0.10780431
114	0x3d2ec7bd	0.042670954
115	0x3e085a76	0.13315758
116	0xbd483b70	-0.04888481
117	0xbd18dd87	-0.03732064
118	0x3cb736e1	0.022365035
119	0x3dfffa80	0.12498951
120	0x3d44c069	0.04803506
121	0xbc8f283c	-0.01747524
122	0xbc64af92	-0.013957875
123	0xbc2e0752	-0.0106218625
124	0xbdc01d2d	-0.09380565
125	0xbd827519	-0.06369991
126	0xbd92099e	-0.071307406
127	0x3de21572	0.110392466
128	0xbe46668a	-0.19375053
129	0x3dddfb18	0.10838908
130	0xbe1775b7	-0.14790998
131	0x3bd7b2d0	0.0065825954
132	0xbdac2661	-0.08405758
133	0x3d943884	0.07237342
134	0xbd9fd42a	-0.07804139
135	0x3d82183f	0.06352281
136	0xbd48ecc0	-0.049053907
137	0xbb870690	-0.0041206554
138	0xbd1a8fb0	-0.037734687
139	0xbcf35f54	-0.029708542
140	0xbdcf2f9f	-0.10116505
141	0xbd4989e0	-0.049203753
142	0xbbbeb560	-0.0058199614
143	0xbe6ba0f6	-0.2301062
144	0xbb9b11f0	-0.004732363
145	0xbd052105	-0.032502193
146	0x3da77a3d	0.08177612
147	0xbd920d84	-0.07131484
148	0xbd92c9ae	-0.071673736
149	0x3d830d93	0.063990735
150	0xbe24aa3d	-0.16080566
151	0x3dbd7bb8	0.09252113
152	0xbc9533e2	-0.018213216
153	0x3df69f0f	0.12042057
154	0x3d907aa7	0.07054644
155	0x3b97dbf0	0.004634373
156	0xbd845978	-0.06462377
157	0x3e0a82b1	0.13526417
158	0x3cd13b7e	0.025541063
159	0xbdb08e08	-0.0862084
160	0x3c8f077c	0.017459624
161	0x3c8a4400	0.016878128
162	0x3c1e1d58	0.009650551
163	0x3da75909	0.08171279
164	0xbcc9d07a	-0.024635542
165	0xbcb30360	-0.021852195
166	0x3d8506f3	0.06495466
167	0xbde098ba	-0.1096663
168	0xbe30ab33	-0.17252807
169	0x3cc909b5	0.024540761
170	0x3e19edf3	0.15032177
171	0xbd40caf9	-0.04706857
172	0x3dcce654	0.10004869
173	0xbe2e1af3	-0.17002468
174	0xbb92c144	-0.0044786055
175	0xbcbd5000	-0.023109436
176	0x3b394838	0.0028271805
177	0x3d0901f2	0.03344912
178	0xbdd9b31c	-0.106298655
179	0xbe0e0fff	-0.1387329
180	0x3da38405	0.07984165
181	0x3cca7dc6	0.024718177
182	0x3c5d7d56	0.013518652
183	0x3e82af6f	0.2552447
184	0x3c192909	0.009348162
185	0xbd95b90d	-0.07310686
186	0xbe3fb802	-0.18722537
187	0xbe41c4b2	-0.1892269
188	0x3dd254e4	0.10270098
189	0x3d0cb950	0.034356415
190	0x3d4795fe	0.048727028
191	0xbd18c4c6	-0.037297033
192	0xbdb63bed	-0.08898149
193	0x3d2288fb	0.039681416
194	0xbd9e5224	-0.07730511
195	0xbcd1762e	-0.025569048
196	0x3c7afd78	0.015319221
197	0xbbc40713	-0.0059822886
198	0xbd8fa91a	-0.070146754
199	0xbbe1b4f0	-0.0068880245
200	0xbd5d2218	-0.053987592
201	0xbd4c13d0	-0.049823582
202	0x3cb63b52	0.022245083
203	0xbe1e6cc2	-0.15471175
204	0x3dfd14b9	0.12357468
205	0x3e17fc47	0.1484233
206	0x3caf1adb	0.02137511
207	0x3db175f9	0.086650796
208	0x3e393f04	0.18090445
209	0x3dc10c1d	0.094261386
210	0x3d0565bc	0.032567725
211	0xbe8246d9	-0.25444677
212	0x3d6b9716	0.057517134
213	0xbd8ef7fe	-0.069808945
214	0xbd6a52cc	-0.057207868
215	0x3e232078	0.15930355
216	0xbce9a0a8	-0.02851899
217	0x3db664b3	0.089059256
218	0xbd048fd4	-0.032363728
219	0x3cafd9e4	0.021466203
220	0x3d01cdd7	0.031690445
221	0x3cc1c840	0.023655057
222	0xbc5b036f	-0.013367518
223	0x3dd56c1e	0.10421012
224	0x3d86bbaa	0.06578763
225	0x3c7ca7e8	0.015420891
226	0x3c08f868	0.008360006
227	0x3da60c74	0.08107844
228	0x3e1827e5	0.14858969
229	0x3e1e05ee	0.1543195
230	0x3da8ef59	0.08248777
231	0x3d3f6f74	0.04673715
232	0x3e02ce03	0.127739
233	0xbdd7a344	-0.10529187
234	0xbb908390	-0.0044102147
235	0xbd3050d4	-0.043045834
236	0xbdda461e	-0.10657905
237	0xbd8c80b7	-0.06860488
238	0x3d77e7af	0.060523685
239	0x3dd7c959	0.10536451
240	0xbda449b7	-0.080218725
241	0xbd7b061e	-0.06128513
242	0x3c8d1d89	0.017225998
243	0x3e115f96	0.1419662
244	0x3dc3fe50	0.09569991
245	0x3e2bf645	0.16793163
246	0x3bd09ccd	0.0063663484
247	0xbb9b6795	-0.0047425725
248	0xbc1f73c8	-0.009732194
249	0x3d61c552	0.05511982
250	0xbd925cc6	-0.071466014
251	0xbd4b4734	-0.04962845
252	0x3d3f1956	0.04665502
253	0xbd538a70	-0.051645696
254	0xbc561690	-0.013066903
255	0xbccc609c	-0.02494841

fc.1.0.bias f4 [64]
0	0x3da9edcb	0.082973085
1	0xbd2ab2c8	-0.041674405
2	0x3da4433b	0.08020636
3	0x3dc33c64	0.09533003
4	0x3db7d741	0.08976603
5	0x3c961b9a	0.018323708
6	0x3dd851b1	0.105624564
7	0x3d3835ab	0.044973057
8	0xbd11a704	-0.03555967
9	0xbbf9d7b0	-0.007624589
10	0xbd8929d4	-0.06697431
11	0xbcb5e406	-0.022203457
12	0xbbe8eb33	-0.007108116
13	0x3dc4b5e8	0.09605008
14	0x3d94548b	0.07242688
15	0x3dcba6b7	0.09943908
16	0x3d1e417a	0.038636662
17	0x3dafd4df	0.08585524
18	0x3d273032	0.040817447
19	0x3da42be6	0.080161855
20	0x3d8cc4af	0.06873452
21	0xbc6fbd3d	-0.01463252
22	0x3b8235b0	0.003973685
23	0xbb726cf4	-0.003699121
24	0x3af6c434	0.0018826784
25	0x3dbc47b1	0.091933616
26	0xbd5dee5c	-0.054182395
27	0x3bbc0099	0.005737376
28	0xbcb3b545	-0.021937022
29	0x3d45f620	0.048330426
30	0x3c224fe7	0.0099067455
31	0xbdcd51a3	-0.100253366
32	0xbcb1ae61	-0.021689596
33	0xbce06d7b	-0.027395954
34	0xbc8ce258	-0.017197773
35	0xbdc46e9a	-0.09591408
36	0x3dd0420d	0.10168848
37	0x3daa352a	0.083109215
38	0x3ca99974	0.020703055
39	0x3d9105f2	0.07081212
40	0x3d21d933	0.039513778
41	0x3dc31e3c	0.09527251
42	0x3bb81edd	0.0056189136
43	0x3d898a43	0.067158245
44	0x3d79458b	0.060857337
45	0x3da2ccb2	0.07949199
46	0xbcf31da1	-0.029677214
47	0x3e054dbb	0.13017933
48	0x3d95afed	0.07308946
49	0xbdd6b10c	-0.10482988
50	0xbd717caf	-0.0589568
51	0xbdbb8198	-0.091555774
52	0x3dc8c566	0.09803276
53	0x3cb37f12	0.021911178
54	0xbc2fc76e	-0.0107287
55	0xbc889b0c	-0.016675495
56	0x3be2e0a6	0.006923753
57	0xbd69190c	-0.056908652
58	0x3dce465e	0.10072015
59	0x3d0cb3b3	0.034351062
60	0x3e033e00	0.1281662
61	0x3dacc57f	0.08436107
62	0xbd023742	-0.03179098
63	0x3d646c05	0.055767078

fc.2.0.weight f4 [10, 64]
0	0xbdf2744a	-0.11838587
1	0x3e2a811b	0.16650812
2	0x3dee5620	0.11637521
3	0xbd619910	-0.055077612
4	0x3c0fe614	0.008782882
5	0x3d5fc77d	0.054633606
6	0x3db42775	0.08796588
7	0x3e0c730a	0.13715759
8	0x3e3b93fd	0.18318172
9	0x3e2b3811	0.16720606
10	0x3ba24248	0.004951749
11	0x3d00d240	0.03145051
12	0x3d7ab291	0.06120545
13	0x3d448521	0.047978524
14	0x3e53f398	0.20698392
15	0x3cba568a	0.022746343
16	0xbb9f7062	-0.004865692
17	0xbb565b01	-0.003270805
18	0xbc3477e0	-0.011014909
19	0x3ca6d539	0.020365344
20	0x3d85e6a2	0.0653813
21	0xbd9b1be5	-0.0757368
22	0xbdffbdb2	-0.124873534
23	0xbdb48f44	-0.08816388
24	0xbdc90c1f	-0.09816765
25	0xbdf81274	-0.12112895
26	0xbdc45751	-0.09586967
27	0x3c495ed2	0.012290673
28	0x3da78378	0.081793725
29	0xbd438c83	-0.047741424
30	0xbdc08d4b	-0.094019495
31	0x3df63111	0.120210774
32	0xbd30fa40	-0.043207407
33	0xbdfbf01f	-0.12301659
34	0xbd8d9ea3	-0.06915023
35	0x3d0a77cf	0.033805665
36	0x3ddfa148	0.10919434
37	0x3c7df090	0.015499249
38	0xbe2c5875	-0.16830619
39	0xbddfcb56	-0.10927455
40	0xbdbd9d1e	-0.09258483
41	0xbc14b350	-0.009075955
42	0xbe64bb28	-0.2233702
43	0x3c220e6e	0.009891136
44	0xbd26f0fb	-0.04075716
45	0x3dee2835	0.11628763
46	0x3d7276a2	0.05919517
47	0x3dafdbfc	0.085868806
48	0xbcb278f9	-0.0217862
49	0x3abe5dd8	0.0014523817
50	0x3d9ea165	0.07745627
51	0xbdb60bf9	-0.08889002
52	0xbe2e57b0	-0.17025638
53	0x3d3c5118	0.045975775
54	0xbe359eae	-0.17736313
55	0x3bd9d3e8	0.0066475756
56	0xbdf41b9c	-0.119193286
57	0x3dfbcc2c	0.12294802
58	0x3e283146	0.16425046
59	0x3ddbabb4	0.10726109
60	0x3d7ebad7	0.062189903
61	0x3dbbb183	0.09164717
62	0xbe0a1f85	-0.13488586
63	0xbe0f1602	-0.13973239
64	0xbe8f86d9	-0.28032568
65	0x3d7d5911	0.06185252
66	0x3dd07c7a	0.10179992
67	0xbdcbdf4a	-0.099546984
68	0xbe7b2bc2	-0.24528411
69	0xbdb6fe20	-0.08935189
70	0xbbe1e8ee	-0.0068942225
71	0x3e053e1d	0.13011976
72	0xbcfd4d5b	-0.030920675
73	0x3b192fac	0.0023374362
74	0x3d425391	0.047442976
75	0x3d5c3312	0.053759642
76	0x3d353663	0.04424132
77	0xbe04c6ca	-0.12966457
78	0xbdd45038	-0.10366863
79	0x3d609357	0.054828014
80	0x3e3e1ef2	0.18566492
81	0xbca87c3c	-0.020567052
82	0x3e15483b	0.14578335
83	0x3ce4da75	0.0279362
84	0xbda69d0b	-0.08135422
85	0xbdba45ba	-0.090953305
86	0xbd97d98e	-0.07414542
87	0x3c8621ba	0.016373504
88	0xbd3675cc	-0.044545934
89	0xbe46fca7	-0.19432317
90	0xbd80ef8a	-0.062956885
91	0xbd235891	-0.039879385
92	0xbe803e2d	-0.25047436
93	0x3e221882	0.15829661
94	0x3d17315d	0.03691231
95	0xbe0edcaa	-0.13951364
96	0x3da1c3e2	0.0789869
97	0x3c692ee8	0.014232375
98	0xbe717201	-0.23578645
99	0x3d22abc6	0.039714597
100	0xbb195792	-0.0023398143
101	0x3da4378d	0.08018408
102	0xbe329962	-0.17441323
103	0x3dc1ebdc	0.09468815
104	0xbd9fcea5	-0.07803086
105	0xbe0ff4a4	-0.14058167
106	0xbdcdeecd	-0.10055313
107	0x3e115a10	0.14194512
108	0x3ddd1e4d	0.10796795
109	0x3e33b860	0.17550802
110	0xbd9884f7	-0.07447236
111	0xbdd82465	-0.10553817
112	0x3ce95402	0.02848244
113	0x3d293539	0.041310523
114	0x3daf3b06	0.0855618
115	0xbdc55fd5	-0.09637419
116	0x3db8a0a2	0.09015013
117	0x3de6fb6e	0.11278425
118	0xbdef9dfe	-0.117000565
119	0xbba6b664	-0.0050876606
120	0x3e47975f	0.19491337
121	0xbdfcc9f5	-0.12343208
122	0xbd6f818c	-0.058473155
123	0xbd6e3c61	-0.05816305
124	0xbc1a47f4	-0.009416569
125	0xbdb4ce73	-0.088284396
126	0xbdced459	-0.10099096
127	0x3cd13c7f	0.025541542
128	0x3e27b7e5	0.16378744
129	0xbdf0c31f	-0.117559664
130	0xbd2e728a	-0.0425897
131	0x3d876844	0.06611684
132	0x3d8d9830	0.06913793
133	0x3d9900ba	0.07470842
134	0xbdd91eab	-0.106015526
135	0x3d1d7408	0.038440734
136	0x3db5fbef	0.08885943
137	0x3d3b3c1b	0.045711618
138	0x3ddb3266	0.10702972
139	0x3ddc308a	0.107514456
140	0xbce3e5b1	-0.027819486
141	0x3d333f3b	0.043761473
142	0xbd18f9f1	-0.037347738
143	0xbddf2076	-0.10894863
144	0xbda41d3f	-0.08013391
145	0xbdfd6d9a	-0.123744205
146	0xbe10d88b	-0.14145105
147	0x3d55ea43	0.052225363
148	0x3df91225	0.12161664
149	0x3e37aecb	0.17937772
150	0x3e05ba80	0.13059425
151	0xbcb4ac37	-0.022054775
152	0xbd97625c	-0.073918074
153	0x3e10819f	0.14111947
154	0xbc80101c	-0.015632682
155	0xbc3e7057	-0.011623464
156	0x3e00709e	0.1254296
157	0xbd1bdcb0	-0.03805226
158	0x3dda032e	0.10645138
159	0x3dff0fdf	0.12454199
160	0xbe4356f9	-0.19076146
161	0x3cde6987	0.027149929
162	0xbd289619	-0.04115877
163	0x3d99b405	0.07505039
164	0xbe346ce7	-0.17619668
165	0x3deac922	0.11464144
166	0xbdd26470	-0.10273063
167	0x3dc0a284	0.094059974
168	0x3df4171c	0.1191847
169	0x3d9f0f74	0.07766619
170	0x3d04c0f9	0.032410596
171	0x3bc7215c	0.006076975
172	0xbd80216c	-0.06256375
173	0xbdd07f6a	-0.10180552
174	0xbcb49257	-0.022042437
175	0x3d8b5623	0.06803539
176	0xbc987c45	-0.018613944
177	0xbde71f22	-0.11285235
178	0xbe3c5e2e	-0.18395302
179	0x3d719d42	0.058987863
180	0xbd16f3e2	-0.03685368
181	0xbde82541	-0.113352306
182	0xbe249eca	-0.16076198
183	0xbd1b3f55	-0.037902195
184	0xbdc9a1b5	-0.09845296
185	0x3de88e01	0.1135521
186	0x3d2c5c8f	0.04208046
187	0x3d1f4c42	0.038891084
188	0x3d49cc17	0.0492669
189	0x3c91fc86	0.017820608
190	0x3cb52c8f	0.022115974
191	0xbdab7ec5	-0.08373789
192	0x3d11f33b	0.035632353
193	0xbdac6b2e	-0.084188804
194	0xbd6a567d	-0.057211388
195	0xbe2cfb01	-0.16892625
196	0x3e152ecd	0.14568634
197	0x3d26149e	0.040547006
198	0xbda6e7c0	-0.081496716
199	0xbda3a89a	-0.079911426
200	0x3e061cb8	0.13096893
201	0x3dbc4390	0.09192574
202	0x3cea1591	0.028574737
203	0x3ad25fd9	0.0016050293
204	0xbda23312	-0.07919897
205	0x3dae2752	0.085035935
206	0xbd9b8fe4	-0.07595804
207	0xbba3b07d	-0.0049954043
208	0xbda74710	-0.08167851
209	0xbdc983f8	-0.09839624
210	0xbda61527	-0.08109503
211	0x3cece3e6	0.028917264
212	0xbe00f4a4	-0.12593323
213	0xbd4a9f2d	-0.049468208
214	0xbbb40386	-0.005493584
215	0x3d2ee0ef	0.042694982
216	0xbdd35ea8	-0.103207886
217	0x3cd79d8b	0.02632024
218	0x3bd56d9b	0.00651331
219	0x3d1ed9da	0.03878198
220	0x3bbeb720	0.00582017
221	0x3da3c648	0.079968035
222	0x3e0ffffa	0.14062491
223	0xbdfb17d2	-0.12260403
224	0xbd62c968	-0.055367857
225	0x3d9a8607	0.07545095
226	0x3d786fda	0.060653545
227	0x3d38cb16	0.045115553
228	0xbd9b6868	-0.07588273
229	0xbe423943	-0.18967156
230	0x3cbfdc54	0.02342049
231	0xbc7404f2	-0.014893757
232	0x3d8d9846	0.069138095
233	0x3cee3be0	0.029081285
234	0x3e09cd28	0.13457167
235	0xbe0cb9b5	-0.13742717
236	0xbdcc3d42	-0.099726215
237	0xbe3fb759	-0.18722285
238	0x3d157e4f	0.03649741
239	0x3d8e45c1	0.06946898
240	0x3dabeb2d	0.083944656
241	0xbdcdc7f0	-0.10047901
242	0xbd535959	-0.05159888
243	0xbb8a13a1	-0.0042137657
244	0x3d00c6b8	0.031439513
245	0xbd8581c0	-0.065188885
246	0x3e116102	0.14197162
247	0x3ca78cbc	0.02045285
248	0x3e05afce	0.13055345
249	0xbda4935b	-0.08035918
250	0xbd7f07a1	-0.062263135
251	0xbd6cc6c3	-0.05780674
252	0xbd488b84	-0.048961177
253	0x3d222855	0.039589245
254	0x3e01ee71	0.12688614
255	0x3d497fbd	0.049194086

fc.2.0.bias f4 [10]
0	0xbde60c03	-0.1123276
1	0x3b9325e0	0.004490599
2	0x3d6e5922	0.058190472
3	0x3d99fb7d	0.07518671
4	0x3e124705	0.14284904
5	0xbd0e0aea	-0.034678377
6	0x3df71fe2	0.12066628
7	0x3d6697ba	0.05629704
8	0xbd0efe85	-0.034910697
9	0xbd879b45	-0.06621412
