Code/checkpoints/cifar10-epoch=28-val_loss=0.87.ckpt (torch, 984640 bytes, 36 tensors)

conv.0.0.weight f4 [8, 3, 3, 3]
-0.0824504 0.4018592 0.26738736 0.086941935 -0.16473699 -0.2302288 -0.09689693 -0.23729424
-0.013465117 -0.10294882 0.2926922 0.15601 0.16430967 0.15561098 -0.03577749 0.057118
-0.466008 -0.25357592 0.2070606 0.23420711 0.07601522 0.052558877 -0.10693242 -0.16955641
-0.07750966 -0.41408554 0.062115524 -0.35642514 -7.628009e-05 -0.18011214 -0.1748325 -0.056196682
0.16222998 -0.057861652 -0.074172944 -0.18179698 0.027676925 0.08848092 -0.02388763 0.22811753
0.41231203 0.2863664 0.27635205 0.40940148 0.13010351 -0.14731084 -0.13818194 0.13718933
-0.4033277 0.11574142 -0.1572235 -0.18590441 -0.12917858 -0.4084457 0.097722165 -0.2359721
0.0031434435 -0.16422877 -0.16687903 0.03708163 0.059689526 -0.08181345 0.1837517 0.045714032
-0.19186004 0.14254391 -0.1460909 -0.13323313 0.2622081 -0.26194775 -0.13342479 0.27160403
-0.12335861 0.040315107 0.17803437 -0.09518064 0.02223648 0.46698973 -0.25247738 -0.15890467
0.107553944 0.10081322 -0.11307883 -0.12530668 0.055428825 0.00038721133 -0.33308178 0.18059348
0.13336332 -0.085948706 0.07756752 -0.15198235 -0.3030686 0.37692758 0.2920582 -0.35713798
0.13484937 0.1295252 -0.002508864 0.14910597 -0.08986131 -0.49283943 0.24939907 0.28296852
-0.31810886 0.027351703 0.16783737 0.03577393 0.3292093 0.18582135 0.28101337 0.20475964
0.42342347 0.2375161 0.121724166 0.0469853 -0.049691334 0.031882122 0.0862289 -0.119996436
-0.23304413 -0.24947418 -0.05362248 -0.248575 -0.1585739 -0.23009254 -0.10838411 0.051540025
-0.28313154 -0.15564568 -0.029847113 -0.0032495505 -0.051506434 -0.032220203 0.067828685 0.0016362579
-0.026823191 0.031354174 0.0040218476 0.06420511 -0.23997805 -0.16663586 -0.082163766 -0.13468124
-0.025359476 -0.081775114 -0.15051886 -0.124954894 -0.2648476 0.063427396 -0.12585156 -0.16313043
-0.12891568 0.06502865 0.3095414 0.09377723 0.28541082 0.28733504 0.23649675 0.24967661
0.14716339 0.08795996 -0.15323682 -0.06568792 -0.07578009 0.08496397 0.10825609 0.0853634
0.15928964 0.017329417 -0.1420891 -0.02577048 0.10398454 0.07675687 0.15291652 0.13285059
0.07168562 0.015543743 0.12923431 -0.2210149 0.07619985 0.31670418 0.24134472 0.21042839
0.05775592 -0.048425928 -0.06227777 -0.05954368 -0.0704513 -0.18116733 -0.16696616 0.029237906
-0.28157666 -0.18396577 -0.285395 -0.048976928 -0.32366717 -0.07709134 0.2016944 0.19267078
-0.043272536 0.040259685 -0.033669725 -0.054134246 0.17141156 0.12935196 0.060399566 0.07300667
0.14979208 0.28324938 0.09840205 -0.15031984 0.16431558 0.06313113 0.058013793 0.052320037
00000000: c1db a8bd 7dc0 cd3e ffe6 883e 9d0e b23d
00000010: d0b0 28be 19c1 6bbe e671 c6bd 43fd 72be
00000020: cb9c 5cbc d5d6 d2bd c1db 953e 16c1 1f3e
00000030: cb40 283e 7c58 1f3e 6b8b 12bd 90f4 693d
00000040: 9a98 eebe b4d4 81be b207 543e fdd3 6f3e
00000050: dead 9b3d fa47 573d 62ff dabd 32a0 2dbe
00000060: 62bd 9ebd 0503 d4be d96c 7e3d 5b7d b6be
00000070: 90f8 9fb8 516f 38be 4a07 33be 7e2e 66bd
00000080: 9e1f 263e 5700 6dbd fce7 97bd fd28 3abe
00000090: b8ba e23c 7c35 b53d feaf c3bc a497 693e
000000a0: 901a d33e 9e9e 923e 047e 8d3e 129d d13e
000000b0: db39 053e a7d8 16be 917f 0dbe 5c7b 0c3e
000000c0: f880 cebe d609 ed3d 32ff 20be ba5d 3ebe
000000d0: 6447 04be cb1f d1be 8f22 c83d aca2 71be
000000e0: 3b02 4e3b 962b 28be 56e2 2abe e8e2 173d
000000f0: 017d 743d cf8d a7bd 6829 3c3e a33e 3b3d
00000100: f576 44be 08f7 113e da98 15be 446e 08be
00000110: 2440 863e 041e 86be 82a0 08be af0f 8b3e
00000120: 70a3 fcbd 7421 253d a44e 363e 11ee c2bd
00000130: 4729 b63c 4719 ef3e b744 81be e8b7 22be
00000140: 3e45 dc3d 2977 ce3d e095 e7bd 6550 00be
00000150: 5609 633d a002 cb39 b289 aabe 7fed 383e
00000160: 6590 083e e005 b0bd b8db 9e3d 43a1 1bbe
00000170: cf2b 9bbe a7fc c03e a788 953e cada b6be
00000180: f415 0a3e 41a2 043e c16b 24bb 3caf 183e
00000190: 3509 b8bd 7355 fcbe 7862 7f3e 40e1 903e
000001a0: 2adf a2be ae10 e03c 8fdd 2b3e af87 123d
000001b0: 1f8e a83e f447 3e3e fce0 8f3e 83ac 513e
000001c0: f6ca d83e 6c37 733e 854a f93d a873 403d
000001d0: 2489 4bbd d496 023d c798 b03d b1c0 f5bd
000001e0: 1fa3 6ebe 2976 7fbe 3fa3 5bbd 728a 7ebe
000001f0: 3261 22be 619d 6bbe 7df8 ddbd a21b 533d
00000200: 9ef6 90be 9561 1fbe ef81 f4bc 69f6 54bb
00000210: 69f8 52bd 55f9 03bd c4e9 8a3d b477 d63a
00000220: 4fbc dbbc 3c6d 003d b4c9 833b f87d 833d
00000230: cebc 75be 97a2 2abe 7a45 a8bd e1e9 09be
00000240: adbe cfbc b679 a7bd 9e21 1abe 5ae8 ffbd
00000250: 1b9a 87be 39e6 813d 3bdf 00be aa0b 27be
00000260: 7902 04be be2d 853d 367c 9e3e 470e c03d
00000270: 5e21 923e 941d 933e 342c 723e 3aab 7f3e
00000280: 00b2 163e 5a24 b43d 1dea 1cbe 6387 86bd
00000290: 9832 9bbd 9701 ae3d 5eb5 dd3d 02d3 ae3d
000002a0: d31c 233e 6cf6 8d3c ce7f 11be 9d1c d3bc
000002b0: d9f5 d43d b532 9d3d 2696 1c3e fc09 083e
000002c0: e9cf 923d 2fab 7e3c 0056 043e bb51 62be
000002d0: ab0e 9c3d 0d27 a23e 1223 773e 8a7a 573e
000002e0: 7991 6c3d 445a 46bd fa16 7fbd 13e4 73bd
000002f0: c548 90bd ee83 39be 2df9 2abe 5584 ef3c
00000300: d12a 90be 8661 3cbe 4b1f 92be 089c 48bd
00000310: b4b7 a5be 11e2 9dbd fa88 4e3e 7d4b 453e
00000320: 8b3e 31bd 57e7 243d 44e9 09bd dfbb 5dbd
00000330: 8386 2f3e d774 043e 8965 773d 8584 953d
00000340: 1863 193e 1006 913e 0487 c93d 72ed 19be
00000350: 5842 283e e54a 813d df9f 6d3d 894d 563d

conv.0.0.bias f4 [8]
0.06817028 -0.026059693 0.16358936 0.066082455 -0.042701352 0.038173947 -0.18302579 0.017991664
00000000: dc9c 8b3d 237b d5bc f883 273e 3d56 873d
00000010: 9de7 2ebd 495c 1c3d 1d6b 3bbe 4163 933c

conv.1.0.weight f4 [16, 8, 3, 3]
-0.45655861 0.24612288 0.22208314 0.05980939 0.16848099 -0.18650667 0.50800896 -0.3146405
-0.13977848 0.119272955 0.0339076 -0.013679007 0.10216848 -0.14420804 -0.20421317 -0.024881793
-0.05700169 0.10167253 -0.0023850086 -0.44895962 -0.14911094 -0.19527932 0.029236803 0.22695448
-0.21055034 0.29353052 0.07121646 -0.01001268 -0.12269717 0.114390396 0.086930245 -0.059439782
-0.07976394 0.036538437 -0.13506302 -0.05758416 0.17959642 0.05648578 -0.0247962 -0.021071661
-0.029531011 -0.23963442 0.13235682 -0.20436049 -0.0009292747 0.05077393 0.22507308 -0.07788066
0.30405292 0.0067732898 -0.4042153 0.22992544 -0.26292342 -0.04076884 0.37435144 0.16000277
-0.2784011 0.29988164 0.02384217 -0.4328819 0.31038007 -0.46065885 -0.22219321 0.22141618
0.16023748 0.11277677 -0.013467522 -0.04984964 -0.30671528 0.07053871 -0.17731167 -0.20293549
-0.37084645 -0.40751022 -0.22148122 -0.39617667 -0.20735534 0.062099293 -0.064742275 0.1324455
0.18091847 0.35550627 0.2394082 -0.14878228 0.08618358 -0.12782346 -0.027710201 0.015105721
0.0018842584 -0.15949029 -0.34321848 -0.51891404 0.22525823 -0.5380314 -0.35251328 0.27926034
-0.17868152 -0.067485064 0.45625523 0.03752703 0.26552492 0.05121354 -0.20190285 0.05703418
0.038545605 -0.113811344 0.20522016 0.175716 -0.09661401 0.14369896 0.09439695 0.017593535
-0.02689471 0.08898434 -0.064183794 0.12839317 0.006730292 -0.02463777 0.17059018 0.22494887
-0.1584484 -0.066217095 -0.0055587767 -0.2115827 -0.044060867 -0.35125253 0.06702167 0.25953394
-0.12769097 0.079947315 0.08269937 -0.27379686 0.020604108 -0.1343406 -0.17341463 0.15053537
0.29914665 -0.073833756 0.08203385 0.08272332 -0.17270626 0.1031681 0.118611686 -0.069547534
-0.08002535 -0.33565947 0.07438083 0.22388567 0.19602318 -0.19662014 0.08200355 0.18474507
0.13959132 -0.21008968 -0.030723901 -0.21238987 -0.00288602 0.01551538 -0.10733656 0.053450145
-0.01407843 -0.10100372 -0.110124364 -0.09525149 0.028350992 -0.118121825 0.11635283 -0.5819978
-0.1191077 0.18307528 0.19879878 0.31237003 0.23561983 -0.2852903 -0.64011437 0.22158523
0.34304985 -0.12890202 -0.24446599 -0.23828833 -0.0014366517 -0.038896143 -0.1297327 0.043157663
0.28052875 -0.002482958 -0.18615378 0.10271915 0.10793709 0.00085687835 -0.018149605 -0.126928
-0.14245443 0.049332358 0.07167873 0.049924236 0.028501462 0.022548296 -0.012911738 -0.04593202
-0.11710369 0.08501355 0.18611452 0.2131047 0.08056146 0.047874883 0.15761182 -0.23600197
0.08162171 -0.24519584 0.1890018 0.09155092 -0.013703488 -0.07524521 0.18948498 0.005550336
0.045781683 0.04646761 0.13626067 -0.084533714 -0.08144975 0.13510059 -0.052517347 -0.028795198
0.16985986 0.13752593 -0.2621052 0.1762264 0.16826415 -0.079218365 -0.0122362 -0.18609868
-0.36764744 -0.23629151 -0.059510157 -0.19499683 -0.19032562 0.06319025 0.024143048 0.08901119
0.27265328 0.2242027 0.19589199 0.044797853 0.07567241 -0.050480183 0.061027944 0.0841947
0.041673012 0.0050914055 -0.030099113 0.01451567 0.10105823 -0.087430865 0.30207288 -0.21162431
00000000: 0dc2 e9be a307 7c3e c369 633e b1fa 743d
00000010: 4886 2c3e 9bfb 3ebe e00c 023f 8f18 a1be
00000020: 1722 0fbe 6145 f43d b2e2 0a3d ea1d 60bc
00000030: b53d d13d 46ab 13be 421d 51be e7d4 cbbc
00000040: 9b7a 69bd b039 d03d ce4d 1cbb 09de e5be
00000050: 8ab0 18be 4df7 47be 0582 ef3c c166 683e
00000060: 829a 57be a249 963e efd9 913d 390c 24bc
00000070: a748 fbbd 8345 ea3d 7c08 b23d 2177 73bd
00000080: 475b a3bd 54a9 153d f64d 0abe 5edd 6bbd
00000090: 20e8 373e a25d 673d 6721 cbbc 7a9e acbc
000000a0: 05eb f1bc ba62 75be 8c88 073e e043 51be
000000b0: 929a 73ba 53f8 4f3d 8f79 663e e57f 9fbd
000000c0: d3ac 9b3e 79f2 dd3b 4ff5 cebe 9371 6b3e
000000d0: e69d 86be 3afd 26bd feaa bf3e c4d7 233e
000000e0: 978a 8ebe 168a 993e a850 c33c b2a2 ddbe
000000f0: 23ea 9e3e 7adb ebbe 9e86 63be ecba 623e
00000100: 4b15 243e 82f7 e63d e2a6 5cbc 232f 4cbd
00000110: c909 9dbe 9976 903d 3191 35be 52ce 4fbe
00000120: 96df bdbe 2ea5 d0be f9cb 62be abd7 cabe
00000130: f554 54be d45b 7e3d 9997 84bd cb9f 073e
00000140: b142 393e eb04 b63e 6c27 753e 625a 18be
00000150: 0481 b03d 27e4 02be 8100 e3bc fc7d 773c
00000160: 38f9 f63a 6c51 23be 55ba afbe 8dd7 04bf
00000170: 18aa 663e 6dbc 09bf 9f7c b4be 36fb 8e3e
00000180: 4af8 36be 9c35 8abd 499a e93e f1b5 193d
00000190: e2f2 873e 4ac5 513d 9fbf 4ebe ac9c 693d
000001a0: ffe1 1d3d ec15 e9bd 3c25 523e e5ee 333e
000001b0: 91dd c5bd d225 133e 3053 c13d 5120 903c
000001c0: 4b52 dcbc 6c3d b63d cb72 83bd 8079 033e
000001d0: c889 dc3b 26d5 c9bc 31af 2e3e ff58 663e
000001e0: 4c40 22be d49c 87bd 6626 b6bb 23a9 58be
000001f0: 2b79 34bd 5fd7 b3be a842 893d a2e1 843e
00000200: 6cc1 02be 6bbb a33d 4a5e a93d 1a2f 8cbe
00000210: f2c9 a83c 9590 09be 9b93 31be f225 1a3e
00000220: c029 993e 2736 97bd 5d01 a83d d86a a93d
00000230: e9d9 30be cc49 d33d afea f23d f06e 8ebd
00000240: 55e4 a3bd 8fdb abbe fa54 983d 4942 653e
00000250: 4dba 483e ca56 49be 7af1 a73d d02d 3d3e
00000260: 07f1 0e3e c021 57be b1b0 fbbc bb7c 59be
00000270: 6223 3dbb 3834 7e3c 45d3 dbbd 8aee 5a3d
00000280: 37a9 66bc 0adb cebd e288 e1bd 3713 c3bd
00000290: 5740 e83c dbe9 f1bd 644a ee3d cffd 14bf
000002a0: bdee f3bd 1678 3b3e e891 4b3e f7ee 9f3e
000002b0: 5346 713e 9211 92be 89de 23bf 3de7 623e
000002c0: 3ba4 af3e e4fe 03be 4b55 7abe db01 74be
000002d0: 084e bcba 9051 1fbd a6d8 04be 17c6 303d
000002e0: 77a1 8f3e 1fb9 22bb 199f 3ebe 6b5e d23d
000002f0: 1f0e dd3d 22a0 603a 7bae 94bc 6af9 01be
00000300: 93df 11be ba10 4a3d 4ccc 923d 5b7d 4c3d
00000310: e67b e93c 34b7 b83c c18b 53bc 3723 3cbd
00000320: 0fd4 efbd 961b ae3d ce94 3e3e 1e38 5a3e
00000330: 68fd a43d 7418 443d fe64 213e 80aa 71be
00000340: 4829 a73d 9e14 7bbe b089 413e 0c7f bb3d
00000350: 9884 60bc 291a 9abd 5a08 423e 98df b53b
00000360: 9385 3b3d d254 3e3d eb87 0b3e 0320 adbd
00000370: 20cf a6bd cf57 0a3e 6e1c 57bd e8e3 ebbc
00000380: beef 2d3e 99d3 0c3e a732 86be b274 343e
00000390: 704d 2c3e 3d3d a2bd 587a 48bc a790 3ebe
000003a0: 493c bcbe 67f6 71be ecc0 73bd 40ad 47be
000003b0: b8e4 42be e469 813d a4c7 c53c 804b b63d
000003c0: 3699 8b3e 6595 653e e997 483e f47d 373d
000003d0: 23fa 9a3d 4fc4 4ebd 70f8 793d 456e ac3d
000003e0: 52b1 2a3d ced5 a63b 6a92 f6bc 22d3 6d3c
000003f0: 9ef7 ce3d f40e b3bd 4ca9 9a3e 0bb4 58be

conv.1.0.bias f4 [16]
0.023050813 0.090909705 -0.19757095 -0.11129059 -0.16758165 -0.028215397 -0.07905526 0.07683171
0.05675478 -0.056076482 0.105538644 0.014530477 0.07968543 0.09674796 -0.008078954 -0.035020676
00000000: 0fd5 bc3c de2e ba3d 0a50 4abe 52ec e3bd
00000010: 869a 2bbe fa23 e7bc b9e7 a1bd f259 9d3d
00000020: b377 683d 74b0 65bd a524 d83d 3d11 6e3c
00000030: 1d32 a33d cb23 c63d 975d 04bc d771 0fbd

conv.2.0.weight f4 [32, 16, 3, 3]
0.42611077 -0.10779815 -0.2276572 -0.25362337 -0.5265574 -0.18584704 -0.25115368 -0.24266699
-0.13890412 -0.21200033 0.030631984 0.15253922 -0.09136779 0.008466948 0.05533045 -0.10608795
-0.15734614 -0.046541378 -0.171096 -0.084473595 -0.0018525097 0.14400199 0.0063555986 -0.0743377
0.11530296 0.0725984 -0.0029806888 -0.29161802 -0.3602375 -0.30767238 -0.05239046 -0.29334757
-0.19246525 0.47049555 -0.011858974 -0.2134362 -0.11850471 -0.049469423 0.08507276 0.0468153
-0.10571297 -0.12883665 -0.0012341758 0.054097805 0.10908451 -0.07793318 -0.3849788 -0.25115082
0.018457334 0.024933746 -0.27859923 0.13485622 0.16695417 0.04664363 0.29002783 0.12802106
0.16533257 0.025181679 0.073384285 0.03749678 -0.049038824 -0.059945654 0.23383076 -0.16204861
-0.31686676 -0.10637926 -0.11161119 -0.1682267 -0.27351642 -0.10528221 -0.39339513 -0.3591281
-0.49514064 -0.71995896 -0.26578325 -0.5653513 -0.7442258 -0.6295378 -0.18021314 -0.75140256
-1.048506 0.08131692 -0.115311384 -0.064753324 0.26110017 0.16818029 -0.018994097 0.169905
0.26340467 0.18722378 0.45787966 0.25022787 -0.056737598 0.3452062 0.347175 0.076713905
0.19152032 -0.05227722 0.046021957 -0.37614888 -0.5955338 -0.24330021 -0.36371213 -0.34372866
-0.11031544 0.12673745 -0.081702545 0.045161854 0.07427012 -0.30272624 -0.30572316 -0.16366938
-0.2604822 -0.34139374 -0.0876385 0.12151464 0.3083855 0.027059149 0.032279976 0.06312731
0.11784225 0.27061713 0.12905209 0.14537543 0.27005854 0.2243255 0.0073391926 -0.02165517
0.107988246 0.0600213 0.07071452 0.035961892 0.20209457 0.052687235 0.052145965 -0.12855867
-0.16287 -0.16739328 -0.07247881 -0.16288574 0.16309665 0.0902125 -0.25350955 -0.15568407
0.0018954758 -0.05093299 -0.01206443 -0.08299334 -0.23310757 -0.12627937 -0.035209056 -0.15781827
-0.14394838 0.05818208 -0.063744396 -0.08382985 -0.10006701 -0.30857483 -0.096408926 -0.22181678
0.031692 -0.013052431 -0.057163473 -0.09063076 -0.102126226 -0.1263318 0.05183334 -0.13974051
-0.021227019 0.021497967 0.014901797 0.113215975 -0.22878762 -0.20967023 -0.10595202 -0.20873414
-0.15255298 -0.06652213 -0.09814954 0.082955614 -0.17481728 -0.25442582 -0.26461953 -0.22567983
-0.0902781 -0.13800552 -0.025976649 -0.12072466 -0.0407144 0.14007564 0.106232956 0.005415814
0.19311419 0.009001488 -0.11794874 0.0063729533 -0.03515176 -0.09083957 -0.05203416 -0.008309939
0.20082898 0.11559514 0.14148733 0.13252878 0.053278614 0.15133347 0.06767486 -0.06981747
-0.05106216 -0.079223394 0.051334385 -0.03260189 -0.18351981 0.28215882 0.22869168 -0.059189565
0.13582481 -0.0341049 -0.30633107 -0.06435351 -0.08223869 -0.120513186 -0.0035922867 -0.02289494
-0.14934944 0.04304457 0.18833008 0.1261563 0.16459551 0.089304835 0.06836404 0.20105681
-0.16982868 0.14747271 -0.06904654 -0.010912312 0.13664156 -0.13690686 -0.21721205 0.1037115
-0.2807848 -0.26578066 0.2846303 -0.14418021 -0.22104922 -0.13939147 -0.20428029 0.015693549
-0.071689315 -0.08780359 0.25286755 0.06233275 0.008827076 0.070870236 0.13748471 0.18200292
00000000: 312b da3e 47c5 dcbd f81e 69be ecda 81be
00000010: 77cc 06bf b04e 3ebe 3797 80be b27d 78be
00000020: e23c 0ebe 9d16 59be edef fa3c 3e33 1c3e
00000030: 091f bbbd f4b8 0a3c 2fa2 623d a444 d9bd
00000040: 591f 21be 2ca2 3ebd ca33 2fbe 7e00 adbd
00000050: e9cf f2ba 4275 133e a042 d03b 5d3e 98bd
00000060: f523 ec3d 78ae 943d a957 43bb f54e 95be
00000070: 0d71 b8be 3c87 9dbe 6197 56bd a731 96be
00000080: 9c15 45be cbe4 f03e 244c 42bc 058f 5abe
00000090: 99b2 f2bd 73a0 4abd a13a ae3d 66c1 3f3d
000000a0: 0b80 d8bd c1ed 03be 11c4 a1ba a995 5d3d
000000b0: b367 df3d 6e9b 9fbd f11b c5be d796 80be
000000c0: d633 973c db41 cc3c 8fa4 8ebe c017 0a3e
000000d0: 09f6 2a3e 640d 3f3d 877e 943e f417 033e
000000e0: f14c 293e cf49 ce3c 804a 963d 3996 193d
000000f0: efdc 48bd 9389 75bd 5571 6f3e 12f0 25be
00000100: 5c3c a2be 5fdd d9bd 6894 e4bd 9f43 2cbe
00000110: 580a 8cbe 339e d7bd 166b c9be a3df b7be
00000120: 1383 fdbe 3b4f 38bf be14 88be ddba 10bf
00000130: 9585 3ebf 6429 21bf cb89 38be eb5b 40bf
00000140: 7235 86bf 7c89 a63d 6028 ecbd 649d 84bd
00000150: ecae 853e 7437 2c3e 8299 9bbc 94fb 2d3e
00000160: fadc 863e 97b7 3f3e 346f ea3e de1d 803e
00000170: af65 68bd debe b03e ecc0 b13e 2e1c 9d3d
00000180: e71d 443e a320 56bd 8581 3c3d 9696 c0be
00000190: e774 18bf b123 79be 7a38 babe 34fd afbe
000001a0: 10ed e1bd 76c7 013e aa53 a7bd a3fb 383d
000001b0: ef1a 983d effe 9abe bf87 9cbe f298 27be
000001c0: ec5d 85be 29cb aebe d07b b3bd abdc f83d
000001d0: b4e4 9d3e 26ab dd3c 0238 043d e448 813d
000001e0: 4757 f13d 548e 8a3e 3b26 043e 4cdd 143e
000001f0: 1d45 8a3e 95b5 653e 9c7d f03b 2f66 b1bc
00000200: f128 dd3d e5d8 753d c6d2 903d c74c 133d
00000210: e1f1 4e3e 92ce 573d 0297 553d e2a4 03be
00000220: 65c7 26be 2569 2bbe c56f 94bd 85cb 26be
00000230: cf02 273e 55c1 b83d 01cc 81be a56b 1fbe
00000240: 9d71 f83a 1c9f 50bd e3a9 45bc 6af8 a9bd
00000250: c0b3 6ebe 614f 01be 5f37 10bd 1d9b 21be
00000260: 3467 13be 5550 6e3d 6c8c 82bd fcae abbd
00000270: efef ccbd 85fd 9dbe 0b72 c5bd f023 63be
00000280: 78cf 013d ddd9 55bc 3f24 6abd 9f9c b9bd
00000290: 8e27 d1bd 205d 01be 324f 543d 2318 0fbe
000002a0: 49e4 adbc 811c b03c ab26 743c c7dd e73d
000002b0: 4d47 6abe cbb3 56be 5ffd d8bd 67be 55be
000002c0: d936 1cbe c13c 88bd a002 c9bd a2e4 a93d
000002d0: 4d03 33be 1a44 82be 367c 87be 9d18 67be
000002e0: b9e3 b8bd 5251 0dbe fbcc d4bc 7e3e f7bd
000002f0: 25c4 26bd fd6f 0f3e aa90 d93d 2477 b13b
00000300: babf 453e fa7a 133c 1c8f f1bd 35d4 d03b
00000310: 4bfb 0fbd 190a babd c521 55bd 6926 08bc
00000320: 1da6 4d3e 25bd ec3d 0ee2 103e a0b5 073e
00000330: ad3a 5a3d 29f7 1a3e 1e99 8a3d 76fc 8ebd
00000340: 8e26 51bd e03f a2bd 0144 523d 8f89 05bd
00000350: 9eec 3bbe 1f77 903e 272e 6a3e c270 72bd
00000360: a915 0b3e 94b1 0bbd 6dd7 9cbe c6cb 83bd
00000370: c26c a8bd 9ecf f6bd 926c 6bbb 2b8e bbbc
00000380: 0fef 18be 814f 303d 9ad9 403e 1e2f 013e
00000390: ba8b 283e 74e5 b63d 7202 8c3d d6e1 4d3e
000003a0: 92e7 2dbe 1603 173e 4668 8dbd 8ec9 32bc
000003b0: c4eb 0b3e 5031 0cbe d66c 5ebe b266 d43d
000003c0: 06c3 8fbe 6714 88be 10bb 913e faa3 13be
000003d0: ba5a 62be a3bc 0ebe da2e 51be c28f 803c
000003e0: d9d1 92bd 5ed2 b3bd db77 813e a050 7f3d
000003f0: 719f 103c 6a24 913d cbc8 0c3e f95e 3a3e

conv.2.0.bias f4 [32]
0.26742545 0.2615252 0.011406607 -0.1597485 0.29419634 -0.109110855 -0.16033334 0.123955734
0.07385578 0.1730189 0.33689246 -0.10086521 0.15352742 0.035988692 -0.32925853 0.27018788
-0.15458134 0.49131033 0.19031864 -0.09619197 0.10671762 -0.04386048 0.1961274 0.24675053
-0.14182766 -0.41524574 -0.14074461 -0.07933584 0.22206004 0.2830006 0.09091513 0.19565277
00000000: fdeb 883e a2e6 853e c7e2 3a3c 1c95 23be
00000010: e7a0 963e 8375 dfbd 6c2e 24be 81dc fd3d
00000020: b341 973d de2b 313e 2b7d ac3e 6b92 cebd
00000030: 4b36 1d3e e168 133d 9394 a8be 1156 8a3e
00000040: 924a 1ebe 078d fb3e e4e2 423e 4c00 c5bd
00000050: c48e da3d 0ca7 33bd 9fd5 483e 2cac 7c3e
00000060: 453b 11be 179b d4be 5b1f 10be d47a a2bd
00000070: b563 633e 74e5 903e b631 ba3d 3359 483e

fc.0.0.weight f4 [128, 512]
0.06032096 0.005844027 -0.098136775 0.43746334 -0.098941885 -0.7744262 -0.4792496 0.037892736
-0.4058761 -0.34670034 -0.47049445 -0.07457423 -0.23237523 -0.13114668 -0.19095981 -0.14315924
-0.21624096 -0.07339331 0.12242183 -0.19514607 0.31876993 0.07784835 0.3243271 0.13801956
0.21233858 0.2478777 0.029935656 0.13321353 -0.0035974234 0.124320574 0.01601088 -0.08883208
0.19166976 -0.04879995 0.058432277 0.26575124 0.018055445 -0.23088054 -0.17954013 0.4917755
-0.047964197 -0.4186141 -0.10645215 0.47497952 -0.015677169 -0.107665926 -0.060692944 -0.18900076
-0.16413555 0.26775396 0.111317776 -0.09933019 -0.035957854 0.32447746 0.14948073 0.037444353
0.20669371 0.16506645 0.06052085 -0.14427356 0.25337127 0.28959972 0.3276281 0.09444356
0.040954918 -0.022107463 -0.09742743 0.13579813 0.22918656 0.08114577 0.23511752 0.0025583762
-0.07080412 -0.20912834 -0.03628967 0.1359548 -0.02546682 -0.0929558 -0.13939363 0.41776702
-0.035484735 0.0258749 0.058296908 0.06660364 -0.007823668 0.017719293 0.054691028 0.055006877
0.014791741 -0.018799126 0.09010183 0.032177657 0.038501486 0.062012494 0.055639233 0.0030701184
-0.066910245 -0.2429617 0.16896662 0.14281514 -0.30990312 -1.0616698 -0.11309937 0.018420476
-0.07487271 -0.7307472 -0.08322576 0.4176611 -0.0060438407 -0.17837767 -0.06062646 0.14016299
0.046302866 0.18349968 -0.32563996 -0.200058 0.35540512 -0.063833125 -0.3581086 0.14120638
0.016212728 -0.13185607 0.17376535 0.122816235 0.109543875 0.42223328 0.28095543 0.11349578
-0.02187538 -0.043027256 0.028946893 0.09105606 0.060592543 0.3713713 0.23496561 -0.3537197
0.16067375 0.10971199 -0.13911648 0.12652081 0.3423291 0.33991426 -0.30574143 -0.20235996
0.1332622 -0.05938537 0.020091742 -0.05026745 0.32471567 0.04815843 -0.7428163 -0.5819139
0.12739702 -0.1541248 -0.637173 -0.5579626 0.011162242 -0.145359 -0.4877083 -0.045584567
-0.0037556323 0.057394274 -0.0601587 -0.17004551 0.02872195 0.16756904 -0.18266796 -0.1841627
0.04785226 0.096572794 0.21419154 0.12843409 -0.24916019 0.09344346 0.07418146 -0.03568719
0.23331371 0.16738878 -0.025411675 -0.30439252 0.27963898 0.21389581 -0.03203976 0.18628608
0.33899713 -0.31795883 -0.29112875 -0.023505624 0.20867029 -0.0797662 -0.24309897 -0.13850182
0.020356001 -0.03367675 0.46710172 0.22676635 0.17672373 -0.14485164 0.21877027 -0.04874625
-0.01112506 -0.3842605 -0.2550795 -0.3626106 -0.29946876 -0.20201458 -0.19584076 -0.17024207
-0.17519379 0.23130463 0.11605171 0.01991887 -0.19018169 -0.19595198 0.35728544 0.12471813
-0.09958965 -0.0497285 0.069281176 0.34681696 0.017360874 -0.3232507 -0.28731447 0.044413377
-0.11075962 -0.08388385 0.19849668 0.31396386 -0.31435606 -0.85377693 0.03999801 0.13958523
-0.14173982 -0.37492746 -0.2345027 -0.1797976 0.12979724 0.07619476 0.30728295 0.033327904
-0.3272551 -0.47857803 -0.32632497 -0.050330654 -0.39186117 -0.36692643 -0.11200849 -0.20057617
0.037007205 0.17735232 -0.19794141 -0.20505354 -0.02625739 -0.18527889 -0.19459221 -0.05123665
00000000: 1c13 773d 407f bf3b effb c8bd 32fb df3e
00000010: 0ba2 cabd cc40 46bf 3460 f5be 6a35 1b3d
00000020: fece cfbe b582 b1be a6e4 f0be 60ba 98bd
00000030: c6f3 6dbe 514b 06be f88a 43be 5698 12be
00000040: 456e 5dbe 3b4f 96bd 4cb8 fa3d 5fd4 47be
00000050: d035 a33e f56e 9f3d 340e a63e 0055 0d3e
00000060: 496f 593e a7d3 7d3e 9f3b f53c 2169 083e
00000070: c0c2 6bbb c99b fe3d 4029 833c 98ed b5bd
00000080: 1445 443e 75e2 47bd af56 6f3d 8c10 883e
00000090: 03e9 933c f36b 6cbe 5ed9 37be 00ca fb3e
000000a0: 1b76 44bd 9654 d6be 9603 dabd 8430 f33e
000000b0: 686d 80bc f47f dcbd 2a99 78bd 6a89 41be
000000c0: 2613 28be 0c17 893e 93fa e33d a06d cbbd
000000d0: 8b48 13bd e921 a63e 7a11 193e 405f 193d
000000e0: 84a7 533e 2e07 293e b6e4 773d 73bc 13be
000000f0: e1b9 813e 6a46 943e dfbe a73e a06b c13d
00000100: 58c0 273d b61a b5bc 0888 c7bd aa0e 0b3e
00000110: e2af 6a3e c12f a63d a6c2 703e 6eaa 273b
00000120: c001 91bd bd25 56be 7aa4 14bd bc37 0b3e
00000130: cb9f d0bc 9c5f bebd 34bd 0ebe 8fe5 d53e
00000140: 7158 11bd 99f7 d33c bdc8 6e3d 7d67 883d
00000150: d82e 00bc 0d28 913c b303 603d e44e 613d
00000160: 0f59 723c a000 9abc 4f87 b83d b8cc 033d
00000170: bcb3 1d3d d000 7e3d f7e5 633d 0a34 493b
00000180: 3d08 89bd f4ca 78be 9605 2d3e 223e 123e
00000190: 9fab 9ebe cce4 87bf a4a0 e7bd 8ae6 963c
000001a0: dd56 99bd 4012 3bbf 4472 aabd add7 d53e
000001b0: 690b c6bb a3a8 36be 7353 78bd e386 0f3e
000001c0: 13a8 3d3d 57e7 3b3e 48ba a6be 01dc 4cbe
000001d0: a9f7 b53e f1ba 82bd 035a b7be 6898 103e
000001e0: 8ed0 843c 4705 07be 8bef 313e 1487 fb3d
000001f0: 8a58 e03d f62e d83e 64d9 8f3e 7a70 e83d
00000200: ff33 b3bc 593d 30bd 0922 ed3c 997b ba3d
00000210: e32f 783d 6124 be3e d39a 703e c01a b5be
00000220: a987 243e aeb0 e03d 8d74 0ebe ac8e 013e
00000230: c345 af3e 3e09 ae3e 248a 9cbe 7337 4fbe
00000240: e375 083e 133e 73bd 7097 a43c 3ee5 4dbd
00000250: 2241 a63e c641 453d 3629 3ebf 4ff8 14bf
00000260: 5d74 023e e4d2 1dbe c51d 23bf a3d6 0ebf
00000270: d6e1 363c fdd8 14be e7b4 f9be e2b6 3abd
00000280: 0e21 76bb 4216 6b3d f868 76bd 6920 2ebe
00000290: 4b4a eb3c 3897 2b3e 4f0d 3bbe 2695 3cbe
000002a0: bb00 443d f5c7 c53d 0755 5b3e 3a84 033e
000002b0: d923 7fbe 495f bf3d 73ec 973d bb2c 12bd
000002c0: cae9 6e3e f767 2b3e 252c d0bc 56d9 9bbe
000002d0: d72c 8f3e 8107 5b3e 203c 03bd c7c1 3e3e
000002e0: 0891 ad3e 80cb a2be d40e 95be de8e c0bc
000002f0: aaad 553e 765c a3bd f0ee 78be 6cd3 0dbe
00000300: a1c1 a63c a2f0 09bd f527 ef3e 7035 683e
00000310: 11f7 343e fd53 14be 5005 603e 26aa 47bd
00000320: e245 36bc cbbd c4be c899 82be 19a8 b9be
00000330: f853 99be e9dc 4ebe 7b8a 48be f053 2ebe
00000340: 0066 33be 1fdb 6c3e 85ac ed3d e62c a33c
00000350: fdbe 42be a3a7 48be 1eee b63e 386c ff3d
00000360: a9f5 cbbd 1db0 4bbd 4ae3 8d3d fe91 b13e
00000370: 6438 8e3c 1e81 a5be e21a 93be cdea 353d
00000380: f1d5 e2bd 4ccb abbd b742 4b3e dfbf a03e
00000390: 47f3 a0be 2091 5abf f4d4 233d 6eef 0e3e
000003a0: 3e24 11be 7ef6 bfbe 7a21 70be dd1c 38be
000003b0: 91e9 043e 000c 9c3d 3154 9d3e d782 083d
000003c0: fb8d a7be 2e08 f5be 1114 a7be 8427 4ebd
000003d0: 07a2 c8be c8dd bbbe b564 e5bd d763 4dbe
000003e0: de94 173d d99b 353e 27b1 4abe 8ef9 51be
000003f0: bd19 d7bc c0b9 3dbe 2e43 47be 86dd 51bd

fc.0.0.bias f4 [128]
-0.22805862 0.5622095 -0.050768837 0.07740381 0.3679312 0.156131 0.37667507 0.16211586
0.19684634 0.027965909 -0.038169697 0.38140693 0.1936131 0.07440649 -0.052276414 0.21471356
-0.40127388 -0.596927 0.58290493 0.58922285 0.19557083 0.20132056 -0.13791224 0.057364024
0.3129919 0.023868782 0.36695734 -0.1594319 0.4512066 0.33768615 -0.11149343 0.08331383
0.28626797 0.07677974 0.68446594 -0.00071975635 0.38409323 0.12477889 -0.0018193001 -0.19750638
0.10573333 0.046860248 -0.08685146 0.1469762 0.10814477 -0.24625593 -0.12312339 0.02658291
0.31539616 0.27204865 -0.056894813 0.4810751 0.19516543 -0.14880742 -0.10299283 0.48689649
0.45870686 -0.038498536 -0.0876096 0.27218208 0.42025626 -0.14874732 -0.0015356753 0.25327882
0.23243837 -0.046004813 0.0054485416 0.33541334 0.18592694 -0.003586036 0.18750653 0.13361897
-0.0068067387 0.422501 0.67929757 -0.09574663 0.3233529 -0.4708771 -0.032775085 -0.06311602
0.0090776365 -0.4769494 -0.06682664 0.3435865 -0.12650569 -0.08281227 0.54911566 0.40080732
-0.17793158 -0.06753127 0.24648413 0.097268015 0.04027389 -0.079632744 0.06542666 0.47793856
-0.02500352 -0.044754226 0.66391826 -0.10785067 0.2639486 0.23965995 0.23796406 -0.1313203
-0.015549576 0.39148372 -0.08031418 0.36734042 0.049158677 -0.069021374 -0.068428956 -0.11438461
0.36497563 0.16928647 0.13280183 0.09361224 0.2868978 0.32029673 0.36371627 -0.10995463
-0.4325824 0.021834586 -0.025740908 -0.040949963 -0.059682935 0.71037734 -0.010143591 -0.29777417
00000000: 3388 69be f6ec 0f3f fcf2 4fbd e485 9e3d
00000010: 7a61 bc3e cee0 1f3e 8edb c03e b301 263e
00000020: 1692 493e c318 e53c d457 1cbd c547 c33e
00000030: 8342 463e 6e62 983d cb1f 56bd dfdd 5b3e
00000040: c573 cdbe 35d0 18bf 4239 153f 4fd7 163f
00000050: b843 483e fa26 4e3e de38 0dbe 8af6 6a3d
00000060: 7940 a03e 7788 c33c d5e1 bb3e 1e42 23be
00000070: 8d04 e73e 33e5 ac3e ab56 e4bd 71a0 aa3d
00000080: b791 923e b23e 9d3d 2939 2f3f 08ae 3cba
00000090: dea7 c43e 138c ff3d 9575 eeba 1d3f 4abe
000000a0: b78a d83d 88f0 3f3d 2edf b1bd ee80 163e
000000b0: 017b dd3d 842a 7cbe 1e28 fcbd 67c4 d93c
000000c0: 9b7b a13e f649 8b3e 890a 69bd 7a4f f63e
000000d0: 72d9 473e f960 18be e8ed d2bd 7f4a f93e
000000e0: a0db ea3e a4b0 1dbd a96c b3bd 735b 8b3e
000000f0: d42b d73e 3851 18be b648 c9ba c3ad 813e
00000100: 5304 6e3e 8b6f 3cbd ae89 b23b 4cbb ab3e
00000110: a263 3e3e b303 6bbb b601 403e 69d3 083e
00000120: 100b dfbb 0d52 d83e 72e6 2d3f cf16 c4bd
00000130: 838e a53e ce16 f1be 2b3f 06bd f942 81bd
00000140: 5eba 143c b632 f4be 68dc 88bd 92ea af3e
00000150: b58a 01be 7b99 a9bd d892 0c3f 9e36 cd3e
00000160: b233 36be d64d 8abd 5666 7c3e 7434 c73d
00000170: 3cf6 243d 7e16 a3bd 6afe 853d 5db4 f43e
00000180: 2fd4 ccbc 3550 37bd 8cf6 293f d0e0 dcbd
00000190: 4524 873e 6b69 753e daac 733e d478 06be
000001a0: a6c3 7ebc 8e70 c83e c37b a4bd 0b14 bc3e
000001b0: 9c5a 493d 145b 8dbd 7b24 8cbd 7a42 eabd
000001c0: 16de ba3e 6f59 2d3e 34fd 073e c6b7 bf3d
000001d0: 45e4 923e effd a33e 0539 ba3e e52f e1bd
000001e0: 717b ddbe 72de b23c 99de d2bc 26bb 27bd
000001f0: 1876 74bd 4adb 353f 4e31 26bc db75 98be

fc.1.0.weight f4 [64, 128]
0.13002264 -0.16825964 -0.07937859 -0.065469824 -0.24299195 0.24625242 0.27245367 -0.33718088
0.3974272 -0.0035440126 0.06612881 0.17917976 -0.2745853 -0.015872091 0.0661096 0.2088096
-0.3745384 -0.58178794 0.043489885 0.19407381 0.03750865 -0.03361589 0.058780342 -0.49379605
-0.34169313 0.33163515 0.11049893 0.1337449 -0.21985334 -0.24773304 -0.14231572 -0.13127297
-0.006745979 -0.2949703 0.063032925 0.22417207 0.13582924 -0.04101094 0.019650849 -0.1488622
-0.4974414 -0.12756369 -0.09396905 -0.13959579 0.07257867 -0.2297007 0.102874525 -0.29968894
-0.3232301 -0.27366197 -0.073749565 0.102068014 -0.07166161 0.09791462 0.015295654 0.13065243
-0.010840972 0.0071573933 -0.078793615 0.30136603 -0.16183797 0.08027377 -0.15091611 0.24484025
-0.08966885 0.16862953 -0.0978379 0.03427025 0.05739765 -0.5527678 4.2221916e-05 0.20156723
-0.042149518 0.11195083 0.021990295 -0.12329242 0.10876959 -0.20249714 0.07304884 -0.042556096
0.1626137 0.084814005 -0.008052702 -0.32886243 0.079338804 -0.054297663 0.1882864 -0.32001787
-0.16855446 -0.26731193 -0.19916917 0.29609495 -0.37895343 -0.08206548 -0.46067375 0.0990424
-0.062724255 -0.024335572 0.14887232 0.0022723796 -0.26195455 0.25155473 0.1928614 0.00665947
-0.3908283 0.13498972 -0.002527359 0.2106315 0.03635913 0.028362427 -0.07484869 0.094068505
-0.027740303 -0.15983151 -0.2133436 0.2051732 0.05178922 0.15092918 0.10263125 0.19106019
-0.5220793 -0.010664562 0.15807633 -0.034105506 -0.116283804 0.25501952 0.20141508 -0.121614456
-0.39139646 0.21281642 0.11062614 -0.2426108 0.015778795 -0.1436671 0.07574398 -0.112852834
-0.082127415 0.034458324 -0.019527921 -0.013828852 0.30132148 0.25678715 0.07185067 0.103202075
-0.15990855 -0.0325924 0.21437153 0.24819855 -0.002799006 -0.30539864 0.08691817 0.09916908
0.012467774 0.069530904 -0.18075344 0.042799275 -0.23284319 -0.023095489 0.010959637 0.06410314
-0.054949123 -0.058892403 0.15272675 0.010642745 -0.008752409 -0.24040498 -0.021590589 -0.05684877
-0.035014465 -0.16392985 -0.03423821 -0.14331569 -0.052530553 -0.007211253 -0.78855133 -0.22612338
-0.059023745 0.24382648 -0.05158063 0.13090187 0.15295935 0.15835372 0.118463024 -0.12023031
0.06513242 0.008956159 -0.004373346 -0.21115473 -0.03740023 -0.08314154 -0.4948025 -0.18602635
-0.47462982 -0.017409129 0.045366958 0.026076637 -0.26516083 0.003429491 -0.10265854 -0.1923321
-0.043314025 0.22369426 0.3569677 -0.027985621 -0.023086186 -0.32121202 0.014644669 0.03408136
-0.5192929 -0.15365937 -0.118011124 0.19907868 -0.015643395 -0.5287595 0.08593408 0.019252917
0.23211214 -0.02961827 0.14972647 -0.4548985 0.091040574 -0.060057104 0.2573775 0.20966688
-0.07343185 0.029584145 0.15698983 -0.022213086 0.23155288 -0.25118774 -0.18400893 -0.049352318
-0.05773135 -0.04401038 -0.07491568 0.13881572 -0.13857709 -0.10517954 0.111208536 0.048694097
0.22009529 -0.0018924125 0.017131971 -0.29031137 0.046483807 -0.41827032 0.24832228 -0.19767104
-0.30555406 -0.08653663 -0.41717836 -0.082580365 0.08688998 0.028742617 -0.090791956 -0.3054852
00000000: a824 053e 414c 2cbe 3e91 a2bd 0b15 86bd
00000010: e2d2 78be 9829 7c3e 0c7f 8b3e f9a2 acbe
00000020: 947b cb3e aa42 68bb 8b6e 873d e67a 373e
00000030: 7296 8cbe 3006 82bc 7864 873d 2fd2 553e
00000040: 7fc3 bfbe 0ef0 14bf 7322 323d 49bb 463e
00000050: aca2 193d d1b0 09bd a8c3 703d d6d2 fcbe
00000060: 67f2 aebe 15cc a93e 434d e23d 6cf4 083e
00000070: 3c21 61be bbad 7dbe 36bb 11be 6c6c 06be
00000080: 600d ddbb 5906 97be 6817 813d 5d8d 653e
00000090: d216 0b3e 16fb 27bd d1fa a03c 556f 18be
000000a0: a4b0 febe 0ea0 02be d872 c0bd 33f2 0ebe
000000b0: 20a4 943d a936 6bbe e1af d23d d470 99be
000000c0: 6a7e a5be 6c1d 8cbe 030a 97bd 0909 d13d
000000d0: 52c3 92bd 7687 c83d 9f9a 7a3c c0c9 053e
000000e0: 559e 31bc 9188 ea3b 8c5e a1bd a64c 9a3e
000000f0: dab8 25be 9366 a43d c189 1abe 67b7 7a3e
00000100: 4da4 b7bd 38ad 2c3e 3d5f c8bd f65e 0c3d
00000110: cc19 6b3d 3182 0dbf 7017 3138 a467 4e3e
00000120: f9a4 2cbd 7a46 e53d fe24 b43c bc80 fcbd
00000130: 97c2 de3d 695b 4fbe a19a 953d 4d4f 2ebd
00000140: 3584 263e f7b2 ad3d 7bef 03bc a860 a8be
00000150: 627c a23d 3a67 5ebd 26ce 403e 62d9 a3be
00000160: 8a99 2cbe 1cdd 88be 01f3 4bbe c299 973e
00000170: 2f06 c2be f211 a8bd 6edd ebbe bed6 ca3d
00000180: 9375 80bd 655b c7bc fc71 183e 34ec 143b
00000190: e81e 86be c8cb 803e 757d 453e af37 da3b
000001a0: a61a c8be bf3a 0a3e 0ca2 25bb c9af 573e
000001b0: 50ed 143d 5258 e83c 454a 99bd fda6 c03d
000001c0: a23f e3bc dfaa 23be bf76 5abe ec18 523e
000001d0: ef20 543d 2e8d 1a3e 5530 d23d 48a5 433e
000001e0: fda6 05bf 6aba 2ebc c3de 213e 37b2 0bbd
000001f0: 3426 eebd eb91 823e c13f 4e3e 0011 f9bd
00000200: 1e65 c8be 8cec 593e f58f e23d f76e 78be
00000210: 8842 813c 781d 13be a91f 9b3d 631f e7bd
00000220: 6b32 a8bd 2c24 0d3d 05f9 9fbc 6992 62bc
00000230: cf46 9a3e 9b79 833e 7226 933d 9c5b d33d
00000240: 11bf 23be 9c7f 05bd 3684 5b3e c327 7e3e
00000250: 876f 37bb 365d 9cbe 2702 b23d 2919 cb3d
00000260: a245 4c3c 3866 8e3d 6e17 39be 4b4e 2f3d
00000270: 726e 6ebe c032 bdbc 0d90 333c 8248 833d
00000280: 5512 61bd 2939 71bd 6764 1c3e e85e 2e3c
00000290: 4466 0fbc b92c 76be bfde b0bc 41da 68bd
000002a0: 546b 0fbd 3add 27be 5e3d 0cbd 59c1 12be
000002b0: 472a 57bd 604c ecbb 80de 49bf e38c 67be
000002c0: e2c2 71bd a6ad 793e 3646 53bd 240b 063e
000002d0: 60a1 1c3e 7a27 223e be9c f23d 4f3b f6bd
000002e0: 2564 853d dbbc 123c 494e 8fbb f238 58be
000002f0: fc30 19bd 1d46 aabd c156 fdbe b17d 3ebe
00000300: ae02 f3be 979d 8ebc b4d2 393d ac9e d53c
00000310: 29c3 87be 50c1 603b a43e d2bd b5f2 44be
00000320: 0c6a 31bd 1c10 653e 78c4 b63e 1a42 e5bc
00000330: 3e1f bdbc e775 a4be 32f0 6f3c e598 0b3d
00000340: 61f0 04bf e258 1dbe d1af f1bd 48db 4b3e
00000350: 9426 80bc c85c 07bf 35fe af3d 4bb8 9d3c
00000360: ceae 6d3e 04a2 f2bc e551 193e 75e8 e8be
00000370: 7b73 ba3d 70fe 75bd fcc6 833e eab2 563e
00000380: 7063 96bd 735a f23c f1c1 203e 38f8 b5bc
00000390: 331c 6d3e ae9b 80be d66c 3cbe a825 4abd
000003a0: b577 6cbd 3a44 34bd 646d 99bd b525 0e3e
000003b0: 27e7 0dbe 5f68 d7bd 4dc1 e33d 7673 473d
000003c0: a960 613e d40a f8ba 5958 8c3c b1a3 94be
000003d0: ce65 3e3d 8727 d6be 3248 7e3e 476a 4abe
000003e0: 9571 9cbe 1e3a b1bd 6798 d5be e51f a9bd
000003f0: 60f3 b13d a375 eb3c 22f1 b9bd 8e68 9cbe

fc.1.0.bias f4 [64]
0.48006412 0.52173823 0.58077055 0.47255525 0.2865098 0.63314706 0.5496865 0.39282978
0.25577927 0.42746687 0.26637328 0.23529738 0.53264755 0.38549682 0.006452879 0.7440539
0.8034496 0.197651 0.34486508 0.3244322 0.29367822 0.65761924 -0.4580011 0.61649454
0.10484686 0.7883522 0.29345068 0.5498095 0.5220148 0.37990284 0.43748155 0.11191468
0.6421584 -0.3206103 -0.31037378 0.20966138 0.30362064 0.18085188 0.18398358 0.26058343
0.7294733 0.41514242 0.67072695 0.4052639 0.33429563 0.6549853 0.7113511 0.30575642
0.7522739 0.51688737 0.7618906 0.54518616 -0.7979651 0.7961742 0.35058564 0.6965501
0.6208682 0.15580828 0.5341865 0.30586636 0.25361204 0.5868258 0.40755668 0.6690833
00000000: f7ca f53e a390 053f 61ad 143f c3f2 f13e
00000010: 6ab1 923e ed15 223f 41b8 0c3f fc20 c93e
00000020: 80f5 823e f0dc da3e 1462 883e ccf1 703e
00000030: 975b 083f d75f c53e ac72 d33b 517a 3e3f
00000040: dfae 4d3f 0665 4a3e 2892 b03e fa1b a63e
00000050: fe5c 963e bc59 283f 1f7f eabe 96d2 1d3f
00000060: f3b9 d63d 73d1 493f 2b3f 963e 51c0 0c3f
00000070: c3a2 053f a082 c23e 95fd df3e 8633 e53d
00000080: 7e64 243f 0927 a4be 50e9 9ebe 79b1 563e
00000090: 2a74 9b3e 3c31 393e 3166 3c3e 316b 853e
000000a0: c3be 3a3f 8c8d d43e c3b4 2b3f c07e cf3e
000000b0: cc28 ab3e 1ead 273f 1b1b 363f 1b8c 9c3e
000000c0: 0695 403f bb52 043f 430b 433f 5291 0b3f
000000d0: 7147 4cbf 13d2 4b3f f67f b33e 1b51 323f
000000e0: 38f1 1e3f 358c 1f3e 72c0 083f 849a 9c3e
000000f0: 70d9 813e 373a 163f 45ab d03e 0b49 2b3f

fc.2.0.weight f4 [10, 64]
-0.08455174 0.09795467 -0.06676771 -0.004211525 0.014560175 -0.19775985 0.09683136 0.12782854
0.023538696 0.14921947 0.082454115 0.10833156 -0.12836921 -0.08829654 0.08960682 -0.13483518
-0.18334407 0.16322088 -0.11252116 0.106275186 0.08400618 0.07653924 -0.2503874 0.08637027
-0.20264234 -0.3202422 -0.16081448 0.17111906 -0.12588854 0.028998567 -0.19205451 0.13939756
-0.008641063 -0.1857982 -0.079296805 0.097476356 -0.09858551 0.07459209 0.042778246 0.08512093
0.091429286 0.090259455 -0.14059412 0.0013682606 0.09052812 0.022195825 -0.074431635 -0.13382405
-0.1579374 -0.031441905 -0.23273857 -0.03165647 -0.4955245 -0.47670963 -0.103971995 -0.15042014
-0.05085688 0.08530352 0.16833232 0.06410863 0.10407678 0.12564911 -0.17736414 0.05129884
-0.16511956 0.075845726 0.14757174 0.0205094 -0.22717677 -0.10426262 0.14271839 0.07457304
0.13232498 0.09587779 -0.11938912 0.1280464 -0.10371533 0.083586045 0.09872317 0.11727274
-0.28256568 -0.22771701 0.062976465 -0.12415457 0.14637691 -0.25749463 -0.49272904 -0.20777652
-0.017361967 -0.23624815 -0.26709428 -0.23448052 0.14760451 -0.2622309 0.15098749 -0.019444592
-0.1019568 0.15914835 -0.03136074 -0.120101914 0.058329087 0.12053867 0.13876669 0.16299707
0.11142744 -0.06098746 -0.097980864 -0.13398845 0.15614767 -0.08963487 -0.32432503 0.09441104
0.122065164 0.09359691 0.1006844 -0.042658437 -0.35435808 -0.3794125 -0.07544735 -0.13232033
-0.12822032 0.09864706 -0.44014326 0.17809771 -0.2886789 -0.20620544 0.042218313 -0.17512496
0.14233458 0.008661026 0.015574613 -0.16798551 -0.19446988 -0.1026128 -0.036615096 0.07164707
-0.1350406 0.13967867 -0.14451939 0.012783208 0.0889233 0.073411204 0.08394937 0.11820349
0.04736491 0.06922462 0.109879404 0.084905535 -0.051460527 -0.09220152 -0.17265892 0.090599224
0.112936564 0.1258742 -0.14739792 0.13285646 -0.17326951 -0.0071069472 -0.054361563 0.13004932
0.13770513 -5.7549914e-05 -0.1506133 0.05543245 -0.058202233 -0.19040157 0.14743301 -0.029062564
-0.058955308 -0.024856964 -0.02052222 -0.011218509 0.028089613 -0.08321017 0.21975218 -0.039109394
0.13562025 0.14835006 0.08770596 0.13946928 -0.22146624 0.061985847 -0.13837704 -0.13335885
-0.120978616 -0.19174823 0.13715926 0.0055623176 0.0111301355 0.15351239 -0.057951268 -0.008380828
-0.06960037 -0.046159994 -0.122810125 0.10967499 -0.093228124 0.14173771 0.048215453 -0.15229595
-0.06670833 -0.09437711 -0.079136126 -0.11205405 0.09473767 -0.123717524 -0.038347192 0.14045604
0.0723154 0.15338859 -0.04127253 -0.1138155 0.036540907 -0.15665126 -0.09965775 0.16149142
-0.036266875 -0.036015023 -0.050713174 0.030808043 -0.024879677 0.002874995 0.08918446 -0.04158797
-0.030758865 -0.16149043 -0.09617581 -0.08369465 -0.075380474 -0.1646351 0.114398375 -0.1421659
0.09375507 0.023858141 0.0587467 0.047632888 -0.2146848 -0.07886275 0.10410769 0.10217837
0.115707986 -0.046533532 0.13204122 0.12332687 -0.39921257 0.01598566 -0.075195074 0.10308069
0.14701809 -0.03228341 0.11045633 -0.20625836 -0.03084253 0.019039525 0.10815923 0.004354204
00000000: 7629 adbd 759c c83d 82bd 88bd d500 8abb
00000010: cd8d 6e3c 8f81 4abe 854f c63d 7ce5 023e
00000020: 39d4 c03c fdcc 183e b4dd a83d f0dc dd3d
00000030: 3873 03be d1d4 b4bd c883 b73d 3c12 0abe
00000040: 8cbe 3bbe 6023 273e 7e71 e6bd cea6 d93d
00000050: 6f0b ac3d 9bc0 9c3d c732 80be e5e2 b03d
00000060: 7981 4fbe c9f6 a3be 8dac 24be d639 2f3e
00000070: ede8 00be 678e ed3c f0a9 44be 3cbe 0e3e
00000080: 3f93 0dbc e241 3ebe 5d66 a2bd afa1 c73d
00000090: 33e7 c9bd bdc3 983d 3e38 2f3d e253 ae3d
000000a0: 473f bb3d f3d9 b83d e8f7 0fbe 3557 b33a
000000b0: cf66 b93d 05d4 b53c 9d6f 98bd 2c09 09be
000000c0: 57ba 21be 3ac9 00bd 0553 6ebe 37aa 01bd
000000d0: 63b5 fdbe 4913 f4be 45ef d4bd bd07 1abe
000000e0: 4e4f 50bd 9db3 ae3d 4f5f 2c3e 634b 833d
000000f0: 3526 d53d 29aa 003e f29e 35be bc1e 523d
00000100: 1a15 29be 0155 9b3d 0c1d 173e 5403 a83c
00000110: 07a1 68be a487 d5bd c524 123e c0b9 983d
00000120: 3380 073e 935b c43d 4882 f4bd 981e 033e
00000130: b468 d4bd 292f ab3d 602f ca3d b12c f03d
00000140: 73ac 90be a62e 69be cef9 803d c044 febd
00000150: d4e3 153e 56d6 83be fb46 fcbe 5ec3 54be
00000160: af3a 8ebc 09eb 71be 95c0 88be a91b 70be
00000170: a325 173e 2143 86be 779c 1a3e 444a 9fbc
00000180: bace d0bd c9f7 223e 1f74 00bd fef7 f5bd
00000190: 7bea 6e3d fadc f63d db18 0e3e b4e8 263e
000001a0: 1234 e43d fdcd 79bd 31aa c8bd 4534 09be
000001b0: 2de5 1f3e 7d92 b7bd ee0d a6be 935a c13d
000001c0: 4dfd f93d bdaf bf3d 9f33 ce3d 9dba 2ebd
000001d0: 6c6e b5be 5b42 c2be 2484 9abd fb7e 07be
000001e0: 304c 03be 7807 ca3d 755a e1be 3f5f 363e
000001f0: b9cd 93be 8527 53be 1ced 2c3d f553 33be
00000200: 28c0 113e fae6 0d3c a92c 7f3c 6504 2cbe
00000210: 1d23 47be a926 d2bd b6f9 15bd b3bb 923d
00000220: 1548 0abe ed07 0f3e e4fc 13be a970 513c
00000230: 6b1d b63d 9d58 963d a6ed ab3d ac14 f23d
00000240: b501 423d a3c5 8d3d 7408 e13d f4e2 ad3d
00000250: 46c8 52bd 27d4 bcbd 80cd 30be 168c b93d
00000260: 494b e73d 2be5 003e 7bef 16be 860b 083e
00000270: 906d 31be 65e1 e8bb 3baa 5ebd a62b 053e
00000280: 9302 0d3e c061 71b8 5f3a 1abe 230d 633d
00000290: 7765 6ebd a1f8 42be aef8 163e 9d14 eebc
000002a0: 1f7b 71bd d5a0 cbbc 371e a8bc d6cd 37bc
000002b0: 301c e63c 186a aabd b706 613e 2c31 20bd
000002c0: 09e0 0a3e 14e9 173e 2f9f b33d 09d1 0e3e
000002d0: 0cc8 62be dfe4 7d3d b6b2 0dbe 398f 08be
000002e0: a3c3 f7bd a659 44be 7a73 0c3e 1a44 b63b
000002f0: 2c5b 363c 5a32 1d3e 4f5e 6dbd be4f 09bc
00000300: a48a 8ebd 4312 3dbd e083 fbbd 489d e03d
00000310: 63ee bebd b123 113e 917d 453d 78f3 1bbe
00000320: 609e 88bd c948 c1bd 1f12 a2bd 987c e5bd
00000330: d305 c23d 9d5f fdbd f211 1dbd b5d3 0f3e
00000340: 191a 943d e611 1d3e 620d 29bd 1a18 e9bd
00000350: ebab 153d 3069 20be 5d19 ccbd 025e 253e
00000360: 938c 14bd 7d84 13bd 9eb8 4fbd 2661 fc3c
00000370: 77d0 cbbc 6a6a 3c3b 58a6 b63d 2658 2abd
00000380: 04fa fbbc bf5d 25be d3f7 c4bd 1a68 abbd
00000390: 1461 9abd 1b96 28be b249 ea3d f093 11be
000003a0: a802 c03d 2672 c33c 61a0 703d b41a 433d
000003b0: 55d6 5bbe cb82 a1bd 6a36 d53d e542 d13d
000003c0: 4ff8 ec3d f299 3ebd d035 073e cc92 fc3d
000003d0: 9765 ccbe 5cf4 823c e0ff 99bd f81b d33d
000003e0: e98b 163e 9c3b 04bd ee36 e23d 6435 53be
000003f0: 79a9 fcbc c7f8 9b3c 9682 dd3d b6ad 8e3b

fc.2.0.bias f4 [10]
0.062179465 -0.18769464 -0.08206882 0.3609932 0.22280799 0.008204363 -0.06201482 -0.030520977
-0.22223689 0.10191272
00000000: e5af 7e3d 0633 40be b313 a8bd 1ad4 b83e
00000010: c727 643e 986b 063c 4003 7ebd 2107 fabc
00000020: 1192 63be 9eb7 d03d

exp_avg f4 [8, 3, 3, 3]
0.106369 0.10082543 0.08470201 0.10615444 0.09111904 0.07915158 0.10754626 0.08896582
0.08379498 0.0929515 0.08632761 0.07115956 0.09000953 0.0738334 0.06298132 0.090103604
0.06991148 0.06650319 0.06820706 0.05779324 0.04180171 0.06351663 0.04366998 0.031340778
0.06269449 0.04086374 0.03607741 -0.0074485075 -0.009210511 -0.0077492506 -0.008940848 -0.013379854
-0.013114197 -0.009745191 -0.013545243 -0.011859782 -0.010968411 -0.013991349 -0.01161151 -0.010113678
-0.015874404 -0.01502807 -0.009732252 -0.014743124 -0.012591948 -0.0057580927 -0.008649503 -0.007832485
-0.0053715534 -0.010576845 -0.011000502 -0.0045779757 -0.009260619 -0.008079157 -0.022489844 -0.011841232
-0.010341107 -0.025398074 -0.013270286 -0.0077310516 -0.02461203 -0.012959643 -0.0063221892 -0.019934835
-0.009555577 -0.008260566 -0.021795219 -0.010003549 -0.0047626607 -0.020765292 -0.008751874 -0.0011875194
-0.022403013 -0.01176836 -0.009881259 -0.024091791 -0.012681145 -0.007094469 -0.022906126 -0.011032871
-0.0028665035 0.007972581 0.016356733 0.01856971 0.0059045684 0.014813373 0.022885356 0.0018748594
0.009506782 0.018800283 0.006677746 0.015081009 0.017540954 0.0051454515 0.014933601 0.02306356
0.0036329145 0.010867836 0.019707449 3.8205584e-05 0.009474457 0.01237136 -0.0023151692 0.009116188
0.018782087 -0.0037563231 0.004610884 0.015483783 -0.051163916 -0.054896746 -0.048350085 -0.04495709
-0.048998754 -0.043487564 -0.033569958 -0.03753811 -0.035886142 -0.049141746 -0.05322644 -0.04784169
-0.04419658 -0.04930037 -0.044937965 -0.035369296 -0.039691586 -0.03883981 -0.029184006 -0.033132184
-0.029001506 -0.024634263 -0.02979219 -0.02658014 -0.017979668 -0.023041831 -0.023453388 0.022930926
0.026496917 0.029228598 0.030427301 0.030480746 0.030267483 0.027520001 0.023124145 0.027122546
0.023580784 0.025294228 0.02744087 0.030207291 0.028230548 0.027927024 0.024395378 0.01842522
0.022664461 0.021624053 0.023461372 0.0270509 0.028296005 0.026848167 0.02843229 0.024585275
0.019106105 0.024882691 -0.0020823386 0.008171381 0.0137389 0.0016795143 0.0074248347 0.013199539
0.0063237078 0.010048347 0.016810719 -0.008162745 0.0006166318 0.0064074323 -0.0045300843 -0.0006080338
0.004070238 -0.001219821 0.00090307806 0.0061979294 -0.01060494 -0.0015144312 0.003570849 -0.005379957
-0.00087092 0.0029646505 0.0024917047 0.0038484687 0.00894198 0.021787299 0.017591545 0.009175583
0.014457678 0.010230333 0.0059120897 0.015644325 0.010567226 0.007845646 0.026619358 0.02125903
0.012202254 0.018979887 0.0133666955 0.0083042905 0.018336948 0.012206988 0.0087261675 0.027494494
0.022886233 0.014517064 0.021111809 0.016916951 0.012180717 0.02010543 0.015264365 0.012102121
00000000: fed7 d93d 907d ce3d 3f78 ad3d 8067 d93d
00000010: 9f9c ba3d 391a a23d 3741 dc3d b633 b63d
00000020: b49c ab3d 5b5d be3d 88cc b03d 1abc 913d
00000030: eb56 b83d f735 973d 5afc 803d 3d88 b83d
00000040: c02d 8f3d d332 883d 25b0 8b3d 9bb8 6c3d
00000050: 4538 2b3d 0215 823d 4bdf 323d 305f 003d
00000060: f865 803d bd60 273d e8c5 133d 9c12 f4bb
00000070: afe7 16bc 6ded fdbb a27c 12bc 2d37 5bbc
00000080: eedc 56bc 4baa 1fbc deec 5dbc 884f 42bc
00000090: dab4 33bc f93b 65bc 343e 3ebc d7b3 25bc
000000a0: 0a0b 82bc 4b38 76bc 0674 1fbc 258d 71bc
000000b0: 754e 4ebc 62ae bcbb a5b6 0dbc d353 00bc
000000c0: db03 b0bb 814a 2dbc 733b 34bc d802 96bb
000000d0: dab9 17bc 715e 04bc 9f3c b8bc ba01 42bc
000000e0: bf6d 29bc 9f0f d0bc 9d6b 59bc c354 fdbb
000000f0: 2b9f c9bc af54 54bc 5e2a cfbb 614e a3bc
00000100: ff8e 1cbc 5357 07bc e38b b2bc ede5 23bc
00000110: 1810 9cbb f91b aabc 0564 0fbc 8aa6 9bba
00000120: 8686 b7bc 14d0 40bc 01e5 21bc 265c c5bc
00000130: 94c4 4fbc b878 e8bb a1a5 bbbc 37c3 34bc
00000140: f3db 3bbb 6e9f 023c 8efe 853c 811f 983c
00000150: 1c7b c13b cab3 723c 127a bb3c d8bd f53a
00000160: 55c2 1b3c 0d03 9a3c fed0 da3b 5616 773c
00000170: 0cb2 8f3c 2d9b a83b 10ac 743c caef bc3c
00000180: 3116 6e3b 020f 323c 8471 a13c ef3e 2038
00000190: c13a 1b3c 3fb1 4a3c 18ba 17bb 105c 153c
000001a0: e4dc 993c a52c 76bb e616 973b b1af 7d3c
000001b0: 4191 51bd 69db 60bd bd0a 46bd ed24 38bd
000001c0: ebb2 48bd 0420 32bd a780 09bd 90c1 19bd
000001d0: 59fd 12bd db48 49bd f803 5abd a6f5 43bd
000001e0: 7907 35bd 2fef 49bd df10 38bd 65df 10bd
000001f0: a593 22bd 7e16 1fbd 4c13 efbc 9db5 07bd
00000200: 9194 edbc cbcd c9bc c00e f4bc 98be d9bc
00000210: 194a 93bc 39c2 bcbc 5221 c0bc a3d9 bb3c
00000220: 1010 d93c d070 ef3c ad42 f93c c2b2 f93c
00000230: 83f3 f73c a071 e13c d96e bd3c 1a30 de3c
00000240: 7d2c c13c d735 cf3c adcb e03c 4875 f73c
00000250: c043 e73c 37c7 e43c d1d8 c73c 7df0 963c
00000260: d2aa b93c ed24 b13c 1032 c03c d999 dd3c
00000270: 06cd e73c b0f0 db3c d5ea e83c 0f67 c93c
00000280: 6884 9c3c c9d6 cb3c d877 08bb 42e1 053c
00000290: 2019 613c 2623 dc3a 074c f33b e142 583c
000002a0: 1b37 cf3b d2a1 243c a2b6 893c 09bd 05bc
000002b0: 76a5 213a 70f5 d13b 1a71 94bb 7564 1fba
000002c0: a25f 853b 67e2 9fba 8bbc 6c3a 0018 cb3b
000002d0: 58c0 2dbc e17f c6ba e804 6a3b 5a4a b0bb
000002e0: 744e 64ba 954a 423b de4b 233b 9736 7c3b
000002f0: 6281 123c 477b b23c 251c 903c 2f55 163c
00000300: e6df 6c3c 209d 273c 34ba c13b 8728 803c
00000310: 2922 2d3c 068b 003c d710 da3c 6b27 ae3c
00000320: f6eb 473c b57b 9b3c fcff 5a3c b80e 083c
00000330: 5e37 963c d2ff 473c 33f8 0e3c 223c e13c
00000340: e97b bb3c fbd8 6d3c acf2 ac3c 6b95 8a3c
00000350: a191 473c 25b4 a43c 6317 7a3c f947 463c
